trained_models_sagnik/dnn_model_mse.pt (torch, 230496 bytes, 19 tensors)

LinearLayer1.weight f4 [100, 484]
0	0x3cff2df1	0.031149836
1	0x3c8ac470	0.016939372
2	0x3d002f80	0.0312953
3	0x3cdb9d97	0.026808543
4	0x3c9f02c3	0.019410497
5	0xbcd28c5d	-0.025701696
6	0x3b87b726	0.004141706
7	0x3d34d731	0.044150535
8	0xbd07353b	-0.03300975
9	0x3d31c6aa	0.04340235
10	0xbd15fe72	-0.03661961
11	0x3d1cce8f	0.038282927
12	0xbbf8bfda	-0.00759123
13	0xbc54c04d	-0.012985301
14	0xbc194cc5	-0.009356682
15	0x3d0d3a39	0.034479354
16	0x3d265dd1	0.040616814
17	0xbd14d2ff	-0.036334034
18	0x3c90f6cf	0.017695813
19	0x3c53e6e1	0.012933464
20	0x3bb7cd98	0.0056092255
21	0x3d156d0c	0.03648095
22	0xbcb4fc6a	-0.022093017
23	0x3c1f6c00	0.009730339
24	0x3cf14dc8	0.029456034
25	0x3d25d984	0.040490642
26	0x3d1d4434	0.03839512
27	0x3d046f82	0.032332905
28	0xbd29cf48	-0.041457444
29	0x3c1b625e	0.009483902
30	0x3d347b41	0.044062857
31	0x3bbb1f0b	0.0057104877
32	0x3c5c99fc	0.013464447
33	0xbb5d307a	-0.0033750818
34	0xbc854445	-0.016267905
35	0x3d16f9ef	0.03685945
36	0x3c36a011	0.011146561
37	0xbd27f7fc	-0.04100798
38	0x3cb427b3	0.021991586
39	0xbc5cd4b4	-0.013478447
40	0xbc3e6516	-0.01162078
41	0xbce59a2d	-0.028027618
42	0x3aa354e2	0.001246121
43	0xbb14a02c	-0.0022678478
44	0x3bba99d9	0.0056946096
45	0xbc86367e	-0.016383406
46	0xbd045d83	-0.032315742
47	0xbcc6527f	-0.02420926
48	0xbc6c1501	-0.014409305
49	0x3b519fa0	0.0031986013
50	0xbd161acf	-0.03664666
51	0xbc8dedef	-0.01732537
52	0xbbe1d58a	-0.006891911
53	0x3c95f38e	0.018304612
54	0x3b788718	0.003792232
55	0xbd25fd36	-0.040524684
56	0x3d0225d0	0.031774342
57	0xbbe51445	-0.0069909417
58	0x3cceeaee	0.025258508
59	0x3c1a1b65	0.009405945
60	0xbbb68926	-0.0055705486
61	0x3d060a85	0.032724876
62	0xbcb93493	-0.022608077
63	0xba87aec3	-0.0010351766
64	0xbcda6947	-0.026661528
65	0xbd0b1595	-0.03395613
66	0x3b160e7d	0.002289682
67	0xbbd4428b	-0.006477659
68	0x3c370c43	0.011172357
69	0xbd22fc17	-0.039791193
70	0xbce4c678	-0.027926669
71	0xbc3e4ebc	-0.011615451
72	0xbcf7fa89	-0.030270832
73	0x3d27c06d	0.040954996
74	0xbcc878ea	-0.024471719
75	0x3d13f3a9	0.036121044
76	0x3b821abd	0.0039704726
77	0xbce0f54c	-0.027460717
78	0xbcfb7916	-0.030697387
79	0x3d24d59a	0.04024277
80	0x3d07a458	0.033115715
81	0x3d3d6d0c	0.046246573
82	0x3c359666	0.011083221
83	0x3d268bc9	0.040660653
84	0xbd08389d	-0.033257116
85	0x3c1344c1	0.00898856
86	0xbcf1966e	-0.029490676
87	0x3cae0a8a	0.02124526
88	0x3d36a4db	0.044590812
89	0xbd31c8cf	-0.043404397
90	0xbd1c90a3	-0.038223874
91	0x3c836a08	0.01604177
92	0xbcbd519d	-0.023110205
93	0xbcc8358b	-0.024439594
94	0x3c53ba48	0.012922831
95	0xbcc492a3	-0.023995703
96	0x3c0d5f30	0.0086286515
97	0x3cbc2573	0.022967076
98	0xbd0f1231	-0.034929458
99	0xbbfa72f0	-0.007643096
100	0xbbf52408	-0.007481102
101	0xbcffb4a3	-0.031214064
102	0x3d1c5978	0.03817126
103	0x3ce5fa45	0.02807344
104	0x3c4208ae	0.01184289
105	0xbbcec5c6	-0.0063101975
106	0x3d251926	0.040307187
107	0xbccd320e	-0.025048282
108	0x3d2e2a82	0.042521007
109	0x3c070465	0.008240794
110	0xbcb6255e	-0.022234615
111	0x3d0e5951	0.034753148
112	0x3c82adcc	0.015952013
113	0xbc9eaa57	-0.019368334
114	0xbca10506	-0.019655716
115	0x3b6fa7b7	0.0036568472
116	0x3d24a5ba	0.04019711
117	0xbcc4bcda	-0.024015833
118	0xbd0f01c7	-0.034913804
119	0x3d116c26	0.03550353
120	0x3c97deee	0.018538918
121	0x3bda57b4	0.006663287
122	0xbc15f86a	-0.009153465
123	0xbba36e0b	-0.0049874834
124	0xbc898c18	-0.016790435
125	0x3b36cd4f	0.002789337
126	0xbccbdca6	-0.024885487
127	0x3d0814dc	0.033223018
128	0x3c78d2b4	0.015186954
129	0xbcc31512	-0.023813758
130	0xbca5a8e5	-0.020222137
131	0x3d0ad53e	0.03389477
132	0xbb2efdbd	-0.0026701533
133	0xbd181db8	-0.037137717
134	0xbd02e943	-0.031960737
135	0xbc42dc0e	-0.011893285
136	0x3ce313d8	0.027719423
137	0xbd26c651	-0.040716473
138	0xbb4176b9	-0.0029520227
139	0x3c89d7b2	0.016826484
140	0x3d21f39e	0.039538972
141	0x3d0a0df1	0.0337047
142	0xbd3b5e05	-0.04574396
143	0x3d3098f8	0.043114632
144	0xbc033186	-0.008007413
145	0xbb213080	-0.0024595559
146	0xbd20f5e0	-0.039296985
147	0xbd1bf250	-0.038072884
148	0xbbe55bdd	-0.0069994763
149	0x3cd1990e	0.025585677
150	0x3c564617	0.013078234
151	0xbd1ba525	-0.03799929
152	0xbc7ba726	-0.0153596755
153	0xbd15dd5f	-0.03658807
154	0x3d18f183	0.0373397
155	0x3ca5b6fb	0.020228853
156	0x3c22932a	0.009922782
157	0xbd30d3d1	-0.043170754
158	0x3a76e54a	0.0009418322
159	0x3d2705e7	0.040777113
160	0xbcf04b74	-0.029332854
161	0x3d27569b	0.040854078
162	0x3c234283	0.009964588
163	0xbcf0f338	-0.02941285
164	0xbcd693ce	-0.026193526
165	0xbc977a6b	-0.01849099
166	0xbd16f36b	-0.036853235
167	0xbbe90782	-0.0071114907
168	0x389dde63	7.527766e-05
169	0xbcfdfa85	-0.031003246
170	0x3c9e929f	0.019357024
171	0xbcddb4f2	-0.02706382
172	0x3b82c5a0	0.003990844
173	0xbd02f8ec	-0.03197567
174	0x3d183305	0.03715803
175	0x3ce47fab	0.027892908
176	0xbcc4969f	-0.023997603
177	0xbc7cb045	-0.015422885
178	0xbcdfd9ff	-0.027325628
179	0x3c95d0d9	0.018288063
180	0x3c756a37	0.014978937
181	0x3d027aa9	0.03185526
182	0x3d361e55	0.04446252
183	0xbcffebef	-0.031240432
184	0x3ceeda9e	0.02915698
185	0x3d019bcb	0.031642716
186	0x3d15b99e	0.03655397
187	0xbaaf52c8	-0.0013376111
188	0x3cc4c4e9	0.024019675
189	0xbcec2ab5	-0.028828958
190	0x3ceaef19	0.028678464
191	0x3add4711	0.0016882141
192	0x3c32b5c3	0.010907593
193	0x3ca36c89	0.019949215
194	0xbcf10d36	-0.029425245
195	0xbc8fed73	-0.01756928
196	0x3cf68749	0.030093806
197	0x3c2899bd	0.01029056
198	0x3cb13d1b	0.021635583
199	0xbb8e9366	-0.0043510674
200	0x3d34e6e1	0.044165496
201	0xbd07fbb0	-0.033199012
202	0x3b0077ad	0.0019602582
203	0xbd10eaac	-0.03538005
204	0xbc89a22c	-0.016800962
205	0x3d047082	0.03233386
206	0xbc774c93	-0.01509394
207	0xbd16de4e	-0.0368331
208	0x3cb01e58	0.021498844
209	0xbc6ee851	-0.014581756
210	0xbba1084b	-0.0049143187
211	0x3c24de0c	0.010062706
212	0xbc4e89ac	-0.012606066
213	0xbc943ab6	-0.018094402
214	0x3d2ad96f	0.041711267
215	0x3b06909f	0.0020532978
216	0xbb903093	-0.0044003217
217	0x3d311869	0.04323617
218	0xbc3845e2	-0.01124713
219	0x3cb5e86d	0.022205556
220	0x3ca0b662	0.019618217
221	0x3ce01e3c	0.027358167
222	0xbd19352a	-0.037404217
223	0xbd1d2eed	-0.03837483
224	0x3d35b3fc	0.0443611
225	0x3cbec9fb	0.023289671
226	0x3b30099d	0.0026861199
227	0xbc122099	-0.008918905
228	0xbcf183a6	-0.02948172
229	0x3d34090e	0.043953948
230	0x3d243b29	0.040095482
231	0x3ca6ee79	0.020377384
232	0xbc986409	-0.018602388
233	0xbce911d8	-0.028450891
234	0x395d201f	0.00021088168
235	0xbd0d403f	-0.034485098
236	0xbc00de4d	-0.007865501
237	0xbd21c964	-0.0394987
238	0x3c31c191	0.0108493725
239	0x3b9293eb	0.0044731996
240	0xbc66d4c7	-0.014088816
241	0xbcf8e4a4	-0.030382462
242	0xbd20b162	-0.039231665
243	0xba9d8176	-0.0012016732
244	0xbcaa12d7	-0.020760937
245	0xbd33fa55	-0.043939907
246	0xbcf8c2b9	-0.030366288
247	0xbcccfcf1	-0.025022956
248	0x3ca4c40a	0.02011301
249	0x3a3fc1ef	0.000731497
250	0xbcdc0ffc	-0.02686309
251	0xbcb4f291	-0.02208832
252	0x3d35374c	0.04424219
253	0xbc4a9b8e	-0.012366189
254	0xbd1fd2ce	-0.0390194
255	0xbc8e8899	-0.01739912

LinearLayer1.bias f4 [100]
0	0xbd2fbfcf	-0.042907532
1	0x3c0608c1	0.008180798
2	0xbd1199b6	-0.03554698
3	0xbca0bdb5	-0.01962171
4	0xbd175df6	-0.036954843
5	0xbd06fa79	-0.032953713
6	0xbcc71a59	-0.024304556
7	0xbbac3a3b	-0.005255965
8	0x3c0e7dc2	0.008696975
9	0xbd1106e9	-0.03540698
10	0xbc675700	-0.0141198635
11	0x3ca16b0a	0.01970436
12	0x3b98cb37	0.004662897
13	0xbd2b1cb1	-0.04177541
14	0xbd18a598	-0.037267298
15	0x3cd8c890	0.026462823
16	0x3be7aee6	0.00707041
17	0x3bef936b	0.0073112748
18	0x3c743871	0.014906035
19	0xbd17abb1	-0.037028972
20	0xbbf406cc	-0.0074470993
21	0x3cad8e7b	0.021186104
22	0xbcd3015b	-0.025757482
23	0xbc9b67b0	-0.01897034
24	0x3d2e8cc3	0.04261471
25	0x3cee0dcb	0.029059311
26	0x3d306a4c	0.043070123
27	0xbcaf6148	-0.021408692
28	0x3c1b7522	0.009488376
29	0x3bb78e95	0.005601714
30	0xbcbe6495	-0.02324132
31	0xbcdc7c8a	-0.026914854
32	0x3c4ba039	0.012428337
33	0xbc985e36	-0.01859961
34	0x3ce723d9	0.028215336
35	0x3d27a8fa	0.040932633
36	0x3ceda1df	0.02900785
37	0x3d1a6b7c	0.03770016
38	0x3d0c6cec	0.034283563
39	0x3c2a8622	0.010407956
40	0x3d154a1b	0.036447626
41	0x3d053df3	0.032529783
42	0x3cfaddb3	0.030623293
43	0xbcea60c6	-0.028610598
44	0xbd0cb5e4	-0.034353152
45	0x3c9cbd92	0.019133363
46	0xbcbfc10d	-0.023407483
47	0xbb9dee7f	-0.0048196907
48	0xbc86b5a8	-0.016444042
49	0x3c351c0e	0.011054052
50	0xbd07ccb0	-0.03315419
51	0x3d11d6a3	0.035605084
52	0x3caa294b	0.020771643
53	0x3b8a7233	0.0042250394
54	0xbc1848e6	-0.009294724
55	0xbc05ac77	-0.008158795
56	0xbd1b95e2	-0.037984736
57	0xbd1d050f	-0.038334902
58	0xbd0343b9	-0.032047007
59	0x3be8aedf	0.0071009244
60	0xbbbc7453	-0.0057511716
61	0x3c9feb87	0.019521488
62	0xbd0f4c6c	-0.03498499
63	0xbd356b1e	-0.044291608
64	0x39a3e168	0.00031257723
65	0xbd0bf758	-0.034171432
66	0x3d0093b9	0.03139088
67	0xb9fa350a	-0.00047723233
68	0xbce45dc9	-0.027876751
69	0x3cce33a9	0.025171118
70	0xbc09c863	-0.008409592
71	0x3ceea733	0.029132461
72	0xbc1dbcb2	-0.009627508
73	0x3a9eb70c	0.0012108996
74	0xbc9570d7	-0.018242283
75	0xbd293e7f	-0.041319367
76	0x3d2733d5	0.040820915
77	0x3d349cd8	0.04409489
78	0xbceeba57	-0.029141588
79	0x3846afad	4.737049e-05
80	0xbb15ba4a	-0.0022846633
81	0x3ca366e2	0.01994652
82	0x3ca03ecc	0.019561194
83	0x3c8160fd	0.015793318
84	0x3d0a70cb	0.033798974
85	0xbd36ac80	-0.044598103
86	0x3ccd50c7	0.025062932
87	0x3ce18ca5	0.027532885
88	0x3cebcf50	0.028785378
89	0x3ccdbe58	0.025115177
90	0x3d13a769	0.036048327
91	0xbcd04ad8	-0.025426313
92	0x3c918f82	0.017768625
93	0x3d1dbd3b	0.038510542
94	0x3d32e82c	0.043678448
95	0xbc44e216	-0.012016794
96	0x3beac842	0.007164986
97	0x3cb98fe1	0.022651615
98	0xbd35b73d	-0.044364203
99	0x3d2c3724	0.042044774

BN1.weight f4 [100]
0	0x3f7ff777	0.99986976
1	0x3f7fdee7	0.99949497
2	0x3f803113	1.0014976
3	0x3f803065	1.0014769
4	0x3f7f7a0c	0.99795604
5	0x3f804800	1.0021973
6	0x3f806760	1.0031548
7	0x3f7ff901	0.99989325
8	0x3f7f6135	0.997577
9	0x3f80317d	1.0015103
10	0x3f80090d	1.0002762
11	0x3f80179c	1.0007205
12	0x3f7f9526	0.9983696
13	0x3f7f8c53	0.9982349
14	0x3f804cf7	1.0023488
15	0x3f7fd967	0.99941105
16	0x3f7fba89	0.99894005
17	0x3f803899	1.0017272
18	0x3f7ff747	0.9998669
19	0x3f8024d2	1.0011237
20	0x3f7febd6	0.9996923
21	0x3f7f902e	0.99829376
22	0x3f7f9bd8	0.99847174
23	0x3f7fc9ba	0.99917185
24	0x3f8045db	1.0021318
25	0x3f800c6a	1.0003788
26	0x3f8004fe	1.0001523
27	0x3f8020b5	1.0009981
28	0x3f7f86bb	0.9981496
29	0x3f8011b9	1.0005409
30	0x3f8007c4	1.000237
31	0x3f7fe428	0.99957514
32	0x3f7f9e4a	0.99850905
33	0x3f803d0b	1.0018629
34	0x3f7f769e	0.9979037
35	0x3f802cd8	1.0013685
36	0x3f7fb8dc	0.9989145
37	0x3f8007ad	1.0002342
38	0x3f800ea4	1.0004468
39	0x3f8027d6	1.0012157
40	0x3f7fabeb	0.998717
41	0x3f7f9bb3	0.99846953
42	0x3f7ff185	0.99977905
43	0x3f8048b9	1.0022193
44	0x3f800cfe	1.0003965
45	0x3f800506	1.0001533
46	0x3f7fd441	0.9993325
47	0x3f7fd80c	0.99939036
48	0x3f7ff93f	0.99989694
49	0x3f7fc0ac	0.9990337
50	0x3f801340	1.0005875
51	0x3f802bc0	1.0013351
52	0x3f7ff7ea	0.9998766
53	0x3f7fc70c	0.99913096
54	0x3f800c19	1.0003692
55	0x3f7f9acc	0.99845576
56	0x3f7fc3b6	0.99908006
57	0x3f7fdc3a	0.99945414
58	0x3f7fc114	0.9990399
59	0x3f7fc9ff	0.99917597
60	0x3f8025e1	1.001156
61	0x3f80525d	1.0025135
62	0x3f800208	1.000062
63	0x3f8003be	1.0001142
64	0x3f7f5a1b	0.99746865
65	0x3f800eb4	1.0004487
66	0x3f7ffeb4	0.9999802
67	0x3f7fefb6	0.99975145
68	0x3f7fdea5	0.99949104
69	0x3f801c27	1.0008591
70	0x3f8033d3	1.0015815
71	0x3f802f59	1.0014449
72	0x3f7f9dc4	0.99850106
73	0x3f8012cb	1.0005735
74	0x3f7fc4eb	0.9990985
75	0x3f8023fe	1.0010984
76	0x3f7f3931	0.9969664
77	0x3f8039a0	1.0017586
78	0x3f8026a4	1.0011792
79	0x3f8007e2	1.0002406
80	0x3f7fc82b	0.9991481
81	0x3f7ff593	0.9998409
82	0x3f80284f	1.0012301
83	0x3f801a8d	1.0008103
84	0x3f801242	1.0005572
85	0x3f801cbe	1.0008771
86	0x3f8004e3	1.0001491
87	0x3f7fdaae	0.99943054
88	0x3f7fa9d6	0.99868524
89	0x3f8026f0	1.0011883
90	0x3f805e2c	1.0028739
91	0x3f803ca9	1.0018512
92	0x3f7ff927	0.9998955
93	0x3f8007ab	1.000234
94	0x3f7f9f33	0.99852294
95	0x3f802692	1.0011771
96	0x3f7fbc98	0.99897146
97	0x3f7f9d01	0.99848944
98	0x3f8001e2	1.0000575
99	0x3f801876	1.0007465

BN1.bias f4 [100]
0	0xb90cee35	-0.0001344018
1	0x3ac916aa	0.0015341837
2	0xba4c2e6c	-0.00077889
3	0xbacd4d87	-0.0015663364
4	0x3a946f20	0.0011324622
5	0xba66185c	-0.00087774335
6	0x3b2ea582	0.0026648943
7	0x3af9a5b1	0.0019046572
8	0x3a722a9b	0.0009237916
9	0xb9adcc0b	-0.00033149155
10	0xbb45fe83	-0.0030211515
11	0xb9fcff2c	-0.00048255303
12	0xbaf2bae5	-0.0018518834
13	0xba889490	-0.0010420252
14	0xb9839740	-0.00025098957
15	0xbb2bc8a3	-0.0026212118
16	0xb6b5a648	-5.413578e-06
17	0xb7d67114	-2.5563444e-05
18	0x3b0ee044	0.0021801153
19	0x3938e9c5	0.00017634693
20	0xbb5c6c62	-0.0033633937
21	0xbad5d49f	-0.0016313976
22	0xbb2a924a	-0.0026027136
23	0x3b080bc3	0.0020758964
24	0x3aca2343	0.0015421886
25	0xbb3061e2	-0.0026913811
26	0xbb35112a	-0.0027628639
27	0xbacbb69c	-0.0015542093
28	0x3aa4d9df	0.0012577138
29	0x3a638089	0.0008678516
30	0xbb22e3d9	-0.0024855046
31	0x3a005015	0.00048947457
32	0xb9dc98b8	-0.00042075454
33	0xb9c84850	-0.0003820085
34	0xbaf72458	-0.0018855436
35	0xbb2d4db1	-0.0026444013
36	0xbabd85fd	-0.0014459487
37	0xba7303d5	-0.00092702854
38	0xbb31e9f8	-0.0027147513
39	0x3b1163d6	0.002218475
40	0x3ac7576a	0.0015208547
41	0x3a82833f	0.0009957327
42	0xbb082cb4	-0.0020778598
43	0x39f2472b	0.0004621086
44	0x3ab39b49	0.0013702895
45	0xbb80d201	-0.0039312844
46	0x39b0e724	0.0003374155
47	0x3b2fd6b9	0.0026830866
48	0xbb0d10ad	-0.0021524832
49	0xbad70c85	-0.0016406929
50	0xbb26f873	-0.0025477677
51	0x3a1e104f	0.0006029652
52	0xbb3e6592	-0.002905224
53	0xbae34814	-0.0017340207
54	0x39f0fd6c	0.0004596518
55	0xbb57bfa6	-0.0032920628
56	0x3b1450cf	0.0022631173
57	0x3a9ccdfd	0.0011963245
58	0x3a448d79	0.0007497888
59	0xbafe0034	-0.0019378723
60	0xbb05445f	-0.0020334942
61	0x3b6ccc2a	0.0036132433
62	0x3a2baf6a	0.0006549271
63	0xb9f20ac9	-0.00046165872
64	0xbaa0cccc	-0.0012268065
65	0x3ae4583d	0.0017421317
66	0xbaffce49	-0.0019516434
67	0xbab371cf	-0.0013690534
68	0x3b1ad395	0.0023624648
69	0x3b04e37f	0.00202772
70	0xbacb8930	-0.0015528556
71	0x3b1e05ed	0.0024112419
72	0xbb4e6ec1	-0.003149912
73	0x3b78b2ee	0.0037948447
74	0x39d66f9d	0.0004090042
75	0x3b250e6f	0.0025185605
76	0xbb426a8d	-0.002966556
77	0x3a675254	0.00088242185
78	0xbade5de9	-0.0016965243
79	0xb94bf047	-0.00019449099
80	0x38d73411	0.00010261697
81	0x3b593e96	0.0033148876
82	0x39904bcd	0.00027522296
83	0x3a92d6c4	0.0011202921
84	0x39a816ca	0.00032060436
85	0x3a8938ba	0.0010469176
86	0x3acb2453	0.0015498496
87	0x3a3815dc	0.00070223
88	0xbacdf2ce	-0.001571262
89	0x3a8249c2	0.0009940194
90	0x3aba199d	0.0014198307
91	0x3a36a5c6	0.0006967451
92	0xbab600ec	-0.0013885773
93	0x3aab3292	0.0013061336
94	0x3a093258	0.0005233637
95	0xbb710261	-0.00367751
96	0xb9ad2c61	-0.00033030196
97	0xbb100acb	-0.002197909
98	0xbac49ff4	-0.0015001283
99	0x3b608154	0.0034256773

BN1.running_mean f4 [100]
0	0xbff2330f	-1.8921832
1	0x3f96a94d	1.1770416
2	0x3f00a5bf	0.5025291
3	0xbe5adf3e	-0.21374223
4	0xbee0899e	-0.43854994
5	0x3f95ae48	1.1693811
6	0x3fad9fa9	1.356435
7	0xbf94e794	-1.1633172
8	0x3f999a33	1.2000183
9	0x3ec33418	0.38125682
10	0x3fc89536	1.5670536
11	0x3de8889c	0.11354181
12	0x401b8989	2.4302695
13	0xbfb51261	-1.4146234
14	0xbedd0b8b	-0.4317287
15	0xbdf41a3e	-0.11919068
16	0x3e176a74	0.14786702
17	0xbf45b030	-0.77221966
18	0x3fbdf7ed	1.4841286
19	0x3d764a31	0.06012935
20	0xbf1e6d11	-0.6188517
21	0xbfae90c0	-1.3637924
22	0xbe95c9db	-0.29255566
23	0xbecf94af	-0.40543124
24	0x3e456d28	0.19279921
25	0x3d0a2668	0.033728033
26	0xbe68c940	-0.22733021
27	0x401b5912	2.4273114
28	0xbfca7246	-1.5816123
29	0x3d62969d	0.055319417
30	0xbf6a5cdb	-0.91547936
31	0x3f2da0c8	0.6782346
32	0xbe4b3bc5	-0.19847019
33	0xbee460ea	-0.4460519
34	0xbdfce25c	-0.12347862
35	0xbe2b453d	-0.16725631
36	0xbf849d37	-1.0360478
37	0x3f9f94b1	1.2467252
38	0x3c58860c	0.013215553
39	0x3f5a93d1	0.853818
40	0x3fbffbf6	1.4998767
41	0x3ec1bb8a	0.37838393
42	0xbec8a8cc	-0.39191282
43	0x3f31809a	0.69336855
44	0x3e045580	0.1292324
45	0xbedee6f9	-0.43535593
46	0x3fddc0d8	1.7324476
47	0x3fa485a4	1.2853284
48	0x3ff2f970	1.8982372
49	0x3f5048f6	0.8136133
50	0x3eee8ec6	0.46593302
51	0x3fc83aab	1.5642904
52	0xbf8ef3ce	-1.1168153
53	0xbf780834	-0.96887517
54	0xbf4a2b8c	-0.789727
55	0xbf9189f4	-1.1370225
56	0xc034b27e	-2.8233943
57	0xbfcacc52	-1.5843604
58	0x3c2b338b	0.0104493005
59	0xbf821e4f	-1.01655
60	0xbf4c342a	-0.79767096
61	0xbd5bba2a	-0.053644337
62	0xbfa5672b	-1.2922109
63	0xbf31c0d2	-0.69434845
64	0x3df43e55	0.119259514
65	0xbe882298	-0.26588893
66	0xbf486ce0	-0.7829113
67	0xbe73ff12	-0.2382777
68	0x3fb72b67	1.431012
69	0x3d2d298f	0.04227596
70	0x3fb8a0ac	1.4424033
71	0xbf1ab397	-0.6043028
72	0x3f62b907	0.8856358
73	0xbf9f13df	-1.2427939
74	0xc02aae04	-2.666871
75	0xbe82eb39	-0.25570086
76	0x3fb20288	1.3907022
77	0x3ef330c4	0.47498143
78	0x3ed6b5a6	0.41935462
79	0x3f8fa423	1.1221966
80	0xbf9afed3	-1.2109016
81	0xbfc687dd	-1.5510212
82	0x3f3801fc	0.7187803
83	0x3f694471	0.9112006
84	0x3e95637b	0.2917746
85	0xbf9f04eb	-1.2423376
86	0x3f46954f	0.77571577
87	0xbcbe1e73	-0.023207879
88	0x3e1724eb	0.14760177
89	0x3fa63d87	1.2987527
90	0x3f512dd3	0.8171055
91	0x3eff8f57	0.49914047
92	0xbf9b922f	-1.2153987
93	0x3e81487a	0.25250608
94	0xbf51db6f	-0.81975454
95	0x3f050e73	0.5197517
96	0x3e6066d5	0.21914227
97	0xbc724447	-0.014786786
98	0x3f1a2407	0.60211223
99	0xbfc83371	-1.5640699

BN1.running_var f4 [100]
0	0x46dd180f	28300.03
1	0x4627c889	10738.134
2	0x4635212b	11592.292
3	0x4601371f	8269.78
4	0x463d00f2	12096.236
5	0x45c6cef4	6361.869
6	0x45efd001	7674.0005
7	0x45a34ec9	5225.848
8	0x45e1fd3e	7231.6553
9	0x45d801ab	6912.2085
10	0x4638f335	11836.802
11	0x46763a52	15758.58
12	0x4609441b	8785.026
13	0x46258699	10593.649
14	0x461c37a9	9997.915
15	0x4644d9b1	12598.423
16	0x45de84eb	7120.6147
17	0x462256be	10389.686
18	0x465c2bfd	14090.997
19	0x4626a3cc	10664.949
20	0x469599a9	19148.83
21	0x460495e0	8485.469
22	0x464850a5	12820.161
23	0x45a54abe	5289.343
24	0x46a6d8e9	21356.455
25	0x45885b3c	4363.4043
26	0x45724d56	3876.8335
27	0x46ac54b8	22058.36
28	0x46645808	14614.008
29	0x46059232	8548.549
30	0x4614ceed	9523.731
31	0x46605776	14357.865
32	0x46374822	11730.033
33	0x466323c1	14536.938
34	0x467166d8	15449.711
35	0x4675e268	15736.602
36	0x460d97d5	9061.958
37	0x46801018	16392.047
38	0x46001063	8196.097
39	0x46453466	12621.1
40	0x45bde2b4	6076.338
41	0x45f9c7ea	7992.9893
42	0x45ab456b	5480.6772
43	0x45adec47	5565.5347
44	0x4606e613	8633.519
45	0x468715fc	17290.992
46	0x464dba2a	13166.541
47	0x466ccfc9	15155.946
48	0x460e5c9a	9111.15
49	0x46c13a29	24733.08
50	0x46125519	9365.274
51	0x4640f0b0	12348.172
52	0x462ae487	10937.132
53	0x45790547	3984.3298
54	0x469fc51e	20450.559
55	0x4602d6a3	8373.659
56	0x463c2798	12041.898
57	0x46a23753	20763.662
58	0x45d401e1	6784.235
59	0x46c411f6	25096.98
60	0x4607892d	8674.294
61	0x46228d09	10403.259
62	0x45bd2efd	6053.8735
63	0x45fcb332	8086.3994
64	0x466abfec	15023.98
65	0x46b92389	23697.768
66	0x45722336	3874.2007
67	0x4585971e	4274.8896
68	0x46362cca	11659.197
69	0x46437bfb	12510.995
70	0x461b12cf	9924.702
71	0x456b2e8f	3762.91
72	0x45cd538d	6570.444
73	0x46264fe6	10643.975
74	0x460b6df8	8923.492
75	0x4657ac42	13803.064
76	0x468e7d0a	18238.52
77	0x46dcc3e8	28257.953
78	0x45944ffb	4745.9976
79	0x45dc8c5a	7057.544
80	0x45cc7a2d	6543.272
81	0x4677bbdb	15854.964
82	0x457c2c2e	4034.7612
83	0x454ea0a6	3306.0405
84	0x45ba16d6	5954.8545
85	0x45d43880	6791.0625
86	0x461d4436	10065.053
87	0x4698e36b	19569.709
88	0x4661e580	14457.375
89	0x45c9dfda	6459.9814
90	0x45b8c12f	5912.148
91	0x46d42554	27154.664
92	0x46afa09d	22480.307
93	0x462fd210	11252.516
94	0x464139f5	12366.489
95	0x45fc3e00	8071.75
96	0x45bc6426	6028.5186
97	0x45f63e0e	7879.757
98	0x45d4fced	6815.6157
99	0x462396eb	10469.7295

LinearLayer2.weight f4 [50, 100]
0	0x3d578204	0.052614227
1	0xbd3e994d	-0.046532918
2	0x3db02deb	0.08602508
3	0xbd046da1	-0.032331113
4	0x3d3d6f78	0.046248883
5	0x3db4a8e4	0.08821276
6	0x3d14d933	0.03633995
7	0x3dbf2a5f	0.093342535
8	0x3ce22304	0.027604587
9	0x3db56bc3	0.088584445
10	0xbd0a421b	-0.03375445
11	0xbdb30ee0	-0.087430716
12	0xbd64426f	-0.05572742
13	0x3d934d33	0.07192459
14	0xbd984f04	-0.07436946
15	0x3ae42130	0.001740491
16	0x3d8d0aad	0.06886802
17	0x3db5fc38	0.088859975
18	0xbad906f2	-0.0016557856
19	0xbc5ec846	-0.013597554
20	0x3d55b324	0.052172795
21	0xbcb82003	-0.022476202
22	0x3c8dc6a4	0.017306633
23	0xbc22426f	-0.009903534
24	0x3d9df9c3	0.07713654
25	0xbce3ad37	-0.027792556
26	0x3c901677	0.017588837
27	0x3daebf75	0.08532611
28	0x3c90df77	0.017684681
29	0x3d155f6a	0.036467947
30	0xbdc396eb	-0.0955027
31	0xbda48947	-0.08033996
32	0x3d645115	0.05574139
33	0xbdb2e16d	-0.08734403
34	0xbdb9e8e3	-0.09077623
35	0xbdae2bc5	-0.08504442
36	0xbce08d6e	-0.027411189
37	0x3b900677	0.004395302
38	0x3da77c2a	0.08177979
39	0x3caefeaf	0.021361677
40	0x3dc4ef54	0.09615961
41	0x3cc572f0	0.024102658
42	0x3d437d0f	0.047726687
43	0x3ca67e9e	0.020324048
44	0xbd6ac93b	-0.057320815
45	0x3d45a40f	0.04825216
46	0x3b84a353	0.00404779
47	0xbd8a5983	-0.06755354
48	0xbd6f8042	-0.058471926
49	0x3bd4f4e8	0.0064989217
50	0xbdc907e1	-0.09815956
51	0xbdc95510	-0.098306775
52	0xbcb4c63b	-0.02206718
53	0x3cc8e333	0.0245224
54	0x3d918af6	0.07106583
55	0xbd710afc	-0.058848366
56	0x3dbed611	0.09318174
57	0x3cc6993e	0.024242993
58	0xbd7ca844	-0.061683908
59	0x3b8cef64	0.0043009985
60	0xbd5ac35e	-0.053408973
61	0xbc66cae9	-0.0140864635
62	0x3d6eb2ee	0.05827611
63	0xbd8da320	-0.06915879
64	0x3d679537	0.056538787
65	0x3dbd1318	0.092321575
66	0x3cd1e7c2	0.025623206
67	0xbd3d6f54	-0.04624875
68	0x3bba2de2	0.005681739
69	0x3cd71787	0.026256336
70	0xb59900dc	-1.1399638e-06
71	0x3c206400	0.009789467
72	0xbba77fa0	-0.0051116496
73	0x3cb5fddf	0.022215782
74	0x3ca5076e	0.020145144
75	0x3db46cc6	0.088098094
76	0x3cc25162	0.023720447
77	0xbdadd485	-0.084878005
78	0x3d27dca0	0.04098189
79	0xbc923ec7	-0.0178522
80	0x3d9b73d1	0.075904496
81	0x3cd764d4	0.026293196
82	0x3cf96fb5	0.030448774
83	0xbdb5b277	-0.0887193
84	0xbdaa0966	-0.08302574
85	0x3d8ed344	0.069738895
86	0x3cec1fb9	0.02882372
87	0x3dc9ef5c	0.09860107
88	0xbd3a275c	-0.045447692
89	0x3cc04cce	0.023474123
90	0x3d6e5bef	0.058193143
91	0xbccd2b57	-0.02504508
92	0xbc8385dc	-0.01605504
93	0x3d26516b	0.04060499
94	0x3d284111	0.041077677
95	0x3d7c8786	0.061652683
96	0x3d1d7223	0.038438927
97	0xbdb4c4c4	-0.088265926
98	0x3d6f340b	0.05839924
99	0x3dc624f0	0.09675014
100	0xbce86da7	-0.028372599
101	0xbd35550b	-0.044270556
102	0x3d98fccc	0.07470092
103	0x3d1a4701	0.03766537
104	0x3d9cde68	0.07659608
105	0x3d14299b	0.03617249
106	0x3dafd4ac	0.08585486
107	0xbd549e1a	-0.05190859
108	0xbce7b956	-0.028286617
109	0xbdaa89fa	-0.08327098
110	0xbd698752	-0.057013817
111	0xbd91204f	-0.070862405
112	0x3c9e90f2	0.019356225
113	0xbcdc7f55	-0.026916185
114	0x3d6d6244	0.05795504
115	0x3d5ffd91	0.05468518
116	0xbd1260d1	-0.035736863
117	0xbd1a2c6f	-0.03764003
118	0xbd4d38b6	-0.050102912
119	0xbc59ff11	-0.0133054415
120	0xbdc90e25	-0.09817151
121	0xbd15a0ed	-0.036530424
122	0xbbe4821a	-0.006973517
123	0x3d63469a	0.055487253
124	0x3ced9724	0.029002734
125	0x3d3db7d3	0.046317887
126	0xbd0f415b	-0.034974437
127	0xbd13d47c	-0.036091313
128	0x3dadaf66	0.0848072
129	0xbd659f0f	-0.056059893
130	0xbd9dc6e6	-0.077039525
131	0xbc218089	-0.009857305
132	0xbd857184	-0.06515792
133	0x3dadbe14	0.0848352
134	0xbdbc2287	-0.09186273
135	0xbda16cb0	-0.078820586
136	0x3d295f34	0.04135056
137	0xbdc20ac2	-0.09474708
138	0x3c222067	0.009895421
139	0x3d1ec599	0.038762663
140	0x3d43c9c5	0.047799844
141	0xbd1ef41a	-0.038807012
142	0xbd6c6e0a	-0.05772213
143	0x3d37ea14	0.04490097
144	0xbdb4a945	-0.08821348
145	0x3d9d7fff	0.07690429
146	0x3da0abf6	0.07845299
147	0x3d9f32ca	0.07773359
148	0x3a3005d4	0.00067147356
149	0x3cab60c9	0.020920174
150	0xbc826299	-0.015916156
151	0x3dadcc3a	0.08486219
152	0x3d86fa4a	0.065907076
153	0x3da856fa	0.082197145
154	0x3db72ad2	0.08943714
155	0xbd10c04b	-0.035339635
156	0xbd6b159c	-0.057393655
157	0x3d60f43b	0.054920416
158	0xbd93f11c	-0.07223722
159	0xbd7ae453	-0.061252903
160	0x3d6ad4b5	0.05733176
161	0x3d9f29d2	0.077716485
162	0xbd585b4d	-0.052821446
163	0x3d580a53	0.05274422
164	0xbbb6b898	-0.0055762045
165	0xbd1299dd	-0.035791267
166	0x3d456864	0.048195258
167	0x3d76c6f4	0.06024833
168	0xbd841dc0	-0.06450987
169	0xbc7836ca	-0.0151497815
170	0xbd80f89e	-0.0629742
171	0x3d9495dd	0.07255147
172	0x3b149399	0.0022670983
173	0x3cf8e4e9	0.03038259
174	0xbd41afa8	-0.04728666
175	0xbd3e55ae	-0.04646843
176	0x3bf11986	0.007357779
177	0xbcf93611	-0.030421289
178	0x3c287f88	0.010284312
179	0xbcb53fb5	-0.022125104
180	0x3cc014db	0.023447445
181	0xbdcf3a34	-0.10118523
182	0x3dc5b99a	0.09654541
183	0x3d5e57ce	0.054282956
184	0xbcc2ca63	-0.023778146
185	0x3d86b90a	0.06578262
186	0xbca4fe72	-0.02014086
187	0x3c1bd7e4	0.009511922
188	0x3d56ae8f	0.052412566
189	0x3dc2da2e	0.09514271
190	0xbc92253c	-0.01784002
191	0xbd9227d1	-0.071365006
192	0x3ce3ed9c	0.027823262
193	0xbd5a5a55	-0.053308804
194	0x3c071b25	0.008246218
195	0x3d9b9f1c	0.07598707
196	0xbc590e12	-0.0132479835
197	0xbbdf05cb	-0.0068061105
198	0x3d6b8d3f	0.05750775
199	0xbdc73f99	-0.09728927
200	0xbdb47f38	-0.088133276
201	0x3dbbaeab	0.09164175
202	0xbd73df81	-0.05953932
203	0xbd2683b2	-0.04065294
204	0xbd364697	-0.044500913
205	0x3ce72d4c	0.028219841
206	0x3d20949a	0.039204217
207	0xbad8441b	-0.0016499789
208	0x3cfb9f50	0.030715615
209	0x3cb18fb2	0.021674965
210	0xbd8988a2	-0.06715514
211	0x3d4d75a0	0.050161004
212	0xbdba37fa	-0.09092708
213	0xbb6d3ed7	-0.0036200786
214	0xbd6c4c1a	-0.057689764
215	0xbca05c75	-0.019575337
216	0xbccb7209	-0.02483465
217	0x3d600641	0.054693464
218	0x3c0d0f6f	0.008609637
219	0x3d14c0fd	0.03631686
220	0x3cddecc9	0.027090447
221	0x3d7efb28	0.06225124
222	0x3ced7619	0.028986977
223	0xbdb9ccb3	-0.090722464
224	0xbdc370b3	-0.0954298
225	0xbce0e39a	-0.027452279
226	0x3cda5a7b	0.026654473
227	0xbcd3334b	-0.025781294
228	0xbdaac6e4	-0.083387166
229	0xbd9183de	-0.0710523
230	0xbd375aec	-0.044764444
231	0xbdb3bc2c	-0.08776125
232	0x3b43bd4c	0.0029867468
233	0xbd34cb21	-0.04413903
234	0x3cd03898	0.025417611
235	0xbd3315fc	-0.043722138
236	0xbcb23575	-0.021754006
237	0xbd0d3a4b	-0.03447942
238	0x3db1a513	0.086740635
239	0xbdc9d6c7	-0.09855419
240	0xbd3558cb	-0.044274133
241	0x3c1aec1c	0.009455707
242	0x3d63783f	0.055534597
243	0x3c894f1c	0.016761355
244	0xbd0aea65	-0.033914942
245	0x3d6e6ea4	0.058210984
246	0xbd090e0a	-0.033460654
247	0x3dc6b306	0.09702115
248	0xbd0a5645	-0.03377368
249	0x3cfa1ff4	0.030532815
250	0xbd3a265e	-0.045446746
251	0xbd497f62	-0.049193747
252	0xbdc8eeff	-0.0981121
253	0xb87f67bd	-6.089335e-05
254	0x3ac23b58	0.0014818711
255	0x3da5ab43	0.08089306

LinearLayer2.bias f4 [50]
0	0xbce4bc39	-0.027921783
1	0x3da2c38f	0.07947456
2	0x3db05abf	0.086110584
3	0x3d6c2799	0.05765495
4	0x3d960d45	0.0732675
5	0x3ca4543c	0.020059697
6	0xbc1285d0	-0.008943036
7	0x3ce10637	0.027468784
8	0xbc083d31	-0.00831537
9	0x3aee5194	0.0018182271
10	0x3dc1bb61	0.09459568
11	0xbc19d83b	-0.009389932
12	0xbcdca2a9	-0.026933031
13	0x3d0332df	0.032030936
14	0xbced6c1a	-0.02898221
15	0x3d80095c	0.06251785
16	0xbdb734e4	-0.08945635
17	0xbd606ea5	-0.05479302
18	0xbda718c5	-0.08159021
19	0x3da8a325	0.08234242
20	0x3d020caf	0.031750377
21	0x3c8327bd	0.01601016
22	0x3d6617d4	0.056175068
23	0xbdb455fb	-0.08805462
24	0xbd2017ba	-0.039085127
25	0x3d4537c3	0.04814888
26	0xbda06696	-0.07832067
27	0x3d28d02f	0.041214164
28	0xbd1ed49a	-0.03877697
29	0x3d40a319	0.047030542
30	0x3dbc38f0	0.091905475
31	0x3d056244	0.032564417
32	0x3d609f72	0.05483956
33	0xbda28ed5	-0.07937399
34	0xbc186216	-0.009300729
35	0x3bcad8e7	0.0061904076
36	0x3cbb29d2	0.02284709
37	0xbd9533a5	-0.07285241
38	0x3d2b5e2c	0.041837856
39	0x3cd7d86a	0.026348311
40	0x3d714c54	0.058910683
41	0x3cd8f235	0.02648268
42	0x3c1912e5	0.009342884
43	0x3da22bc5	0.079185046
44	0xbd867bb0	-0.0656656
45	0x3db2a35c	0.087225646
46	0xbdb2a0f0	-0.08722103
47	0x3d72709c	0.059189424
48	0xbcea9208	-0.028634086
49	0x3b33e58b	0.002745005

BN2.weight f4 [50]
0	0x3f7f6dec	0.997771
1	0x3f7f97ec	0.9984119
2	0x3f7faf50	0.9987688
3	0x3f804c4b	1.0023283
4	0x3f8044a5	1.0020949
5	0x3f805c19	1.0028106
6	0x3f7f7577	0.9978861
7	0x3f801254	1.0005593
8	0x3f7ff647	0.99985164
9	0x3f7fbe23	0.998995
10	0x3f807bfe	1.003784
11	0x3f7fd450	0.9993334
12	0x3f7fc1dc	0.9990518
13	0x3f7f9cec	0.9984882
14	0x3f800bd2	1.0003607
15	0x3f8017f0	1.0007305
16	0x3f800e0b	1.0004286
17	0x3f804703	1.0021671
18	0x3f80337a	1.0015709
19	0x3f7f6921	0.9976979
20	0x3f7ff340	0.99980545
21	0x3f7fc811	0.9991465
22	0x3f7f5ec5	0.9975398
23	0x3f8039b8	1.0017614
24	0x3f7f5be5	0.99749595
25	0x3f8036b7	1.0016698
26	0x3f8032ae	1.0015466
27	0x3f80407c	1.0019679
28	0x3f7f7bbd	0.99798185
29	0x3f7fb748	0.9988904
30	0x3f7f55b4	0.9974015
31	0x3f8012f7	1.0005788
32	0x3f802537	1.0011357
33	0x3f8011bb	1.0005411
34	0x3f7fb4a1	0.9988499
35	0x3f7ff70f	0.99986356
36	0x3f7ffd31	0.99995714
37	0x3f801fab	1.0009664
38	0x3f7fb86b	0.99890774
39	0x3f804e32	1.0023863
40	0x3f802ade	1.0013082
41	0x3f7f7660	0.9979
42	0x3f7ff294	0.9997952
43	0x3f800c9e	1.000385
44	0x3f7ff4b9	0.9998279
45	0x3f801328	1.0005846
46	0x3f804cd0	1.0023441
47	0x3f7fcee3	0.9992506
48	0x3f80256e	1.0011423
49	0x3f7fbaca	0.9989439

BN2.bias f4 [50]
0	0xbb8d52c3	-0.0043128445
1	0xb983b86f	-0.0002512368
2	0x3a1a190f	0.0005878368
3	0x3b2968fc	0.002584993
4	0xbb2e065b	-0.002655408
5	0xb9bdf311	-0.00036229988
6	0x3b14aa44	0.0022684494
7	0x3accccc7	0.0015624993
8	0x3ab03cb9	0.0013445831
9	0x3b032156	0.0020008883
10	0xbb65a841	-0.0035042914
11	0xbb0bc9dc	-0.0021330034
12	0x3a068746	0.00051318516
13	0xbaf26cc8	-0.0018495554
14	0xbae9702b	-0.0017809918
15	0x3ab1b450	0.0013557766
16	0x3af4c1a0	0.0018673427
17	0x3b147f56	0.0022658906
18	0x3aec52f6	0.0018030095
19	0xb9a29968	-0.00031013344
20	0xba88365f	-0.001039218
21	0xbb5a7229	-0.0033332205
22	0xba82972c	-0.0009963266
23	0x3887594d	6.453935e-05
24	0xbb645860	-0.0034842715
25	0xba4a9b55	-0.0007728835
26	0xbb7b732a	-0.0038368204
27	0xbb4c0a16	-0.0031133941
28	0xbb46186d	-0.0030226961
29	0xbaf94558	-0.0019017858
30	0xbb12dca9	-0.0022409356
31	0xbb7f0679	-0.003891377
32	0x3b23eba4	0.002501228
33	0xbb41b3b9	-0.0029556586
34	0xbb54ce7c	-0.0032471707
35	0x3ab44c7a	0.0013755702
36	0xbb53123d	-0.0032206916
37	0x3b159060	0.002282165
38	0x3ab637d4	0.0013902136
39	0x3b0297e3	0.0019926957
40	0xbb3c1452	-0.0028698635
41	0xbafd7cb5	-0.0019339534
42	0x3a8f1926	0.0010917529
43	0x3a915afd	0.0011089739
44	0x3b03be2f	0.0020102372
45	0x3ab5ae8b	0.0013861222
46	0xbb46b033	-0.0030317425
47	0x39810af9	0.00024612973
48	0xb9cf56c8	-0.00039546774
49	0xb9525dc4	-0.00020062091

BN2.running_mean f4 [50]
0	0xbb87a78f	-0.0041398476
1	0x3da31dba	0.07964654
2	0x3d930b12	0.07179846
3	0x3d84abee	0.064781055
4	0x3db325e6	0.08747463
5	0x3d099699	0.033590887
6	0xbbd77091	-0.0065746983
7	0x3d75d8ab	0.060021084
8	0xbb5b14ee	-0.0033429223
9	0x383c86b8	4.494816e-05
10	0x3dd6a82e	0.104812965
11	0xbc559575	-0.013036122
12	0xbcecd2fc	-0.028909199
13	0x3cdc2450	0.026872784
14	0xbcfe5ad2	-0.031049166
15	0x3d90191e	0.07036041
16	0xbdcc16ee	-0.09965311
17	0xbd8fd992	-0.0702392
18	0xbd91890c	-0.07106218
19	0x3dbecb13	0.09316077
20	0x3d06feb9	0.032957766
21	0x3c466251	0.012108401
22	0x3d5df3a4	0.054187432
23	0xbdb96b90	-0.09053719
24	0xbd2615a9	-0.040548
25	0x3d070288	0.0329614
26	0xbd8d1f1b	-0.068906985
27	0x3d25bac4	0.040461317
28	0xbce845b4	-0.02835355
29	0x3d33e0a9	0.043915424
30	0x3ddbae3d	0.10726593
31	0x3d3504a2	0.04419387
32	0x3d11c95b	0.03559242
33	0xbdb4319c	-0.08798525
34	0xbc2602ba	-0.010132486
35	0x3ba9773e	0.0051716855
36	0x3ce1edfa	0.027579296
37	0xbd809ea0	-0.06280255
38	0x3d270a37	0.040781226
39	0x3ceebbe5	0.02914233
40	0x3d797a8c	0.060907885
41	0x3cf60753	0.03003279
42	0x3c96b2f1	0.018395873
43	0x3db2110d	0.086946584
44	0xbd789463	-0.060688388
45	0x3db9c848	0.09071404
46	0xbd95b19c	-0.07309267
47	0x3d9e8f4f	0.07742178
48	0xbce79e36	-0.028273683
49	0xbc395790	-0.01131238

BN2.running_var f4 [50]
0	0x3de9c110	0.11413777
1	0x3dc52b97	0.09627455
2	0x3dba233d	0.090887524
3	0x3dab9fee	0.083801135
4	0x3eb2a3c7	0.34890577
5	0x3e8156c0	0.25261497
6	0x3e28c953	0.16483049
7	0x3f0d8be2	0.5529157
8	0x3e2739b3	0.16330604
9	0x3e289816	0.16464266
10	0x3e261840	0.16220188
11	0x3ed34e21	0.41270545
12	0x3e6979c3	0.22800355
13	0x3d8120ab	0.06305059
14	0x3e0cfa31	0.13767315
15	0x3e037c27	0.12840329
16	0x3e909339	0.28237322
17	0x3ec2351d	0.37931147
18	0x3eb33521	0.35001472
19	0x3e177842	0.14791968
20	0x3e1f31b2	0.15546301
21	0x3e018946	0.12650022
22	0x3e33b430	0.17549205
23	0x3dc7b4f6	0.097513124
24	0x3e146b7f	0.14494132
25	0x3dc691b7	0.09695762
26	0x3e36c23f	0.17847537
27	0x3e5c6704	0.21523672
28	0x3e2ab6bf	0.16671275
29	0x3da643a0	0.08118367
30	0x3e529aa5	0.20566805
31	0x3e41c86a	0.18924108
32	0x3ea12798	0.3147552
33	0x3dcd5f58	0.10027951
34	0x3e65385f	0.22384785
35	0x3dc655ea	0.096843556
36	0x3e0c6d02	0.13713458
37	0x3e12ac6a	0.14323583
38	0x3e03e0a4	0.12878662
39	0x3dcef86e	0.10105978
40	0x3dcf76fc	0.10130116
41	0x3e3b7ce1	0.18309356
42	0x3e9726e5	0.29521862
43	0x3e04ada7	0.12956868
44	0x3e3fc22c	0.18726414
45	0x3e0fc529	0.14040054
46	0x3dcce138	0.100038946
47	0x3dc80052	0.09765686
48	0x3e230688	0.1592046
49	0x3e490e4f	0.19634365

LinearLayer3.weight f4 [33, 50]
0	0x3b9744ce	0.0046163565
1	0xbc906cad	-0.017629946
2	0x3cfd37e8	0.030910447
3	0xbcace998	-0.02110748
4	0xbdaf5f2f	-0.08563077
5	0x3db23c10	0.08702862
6	0x3db31959	0.08745069
7	0xbe0de8cc	-0.13858336
8	0x3dc35c9e	0.0953915
9	0x3e063024	0.13104302
10	0x3d6670a9	0.056259785
11	0x3e0786a2	0.13234952
12	0x3c810d68	0.015753463
13	0x3e0312f8	0.12800205
14	0x3da31f5a	0.07964964
15	0x3da67477	0.08127683
16	0xbdc10148	-0.094240725
17	0xbbc1136f	-0.0058922092
18	0x3cd69ee3	0.02619881
19	0x3dd5b63c	0.10435149
20	0xba52071f	-0.00080119254
21	0x3deac764	0.11463812
22	0xbcfeb130	-0.031090349
23	0xbd8e6d24	-0.06954411
24	0x3ce12052	0.027481232
25	0x3d34d547	0.04414871
26	0xbd373b23	-0.04473413
27	0xbdf6a706	-0.12043576
28	0xbd2508bd	-0.040291537
29	0xbd80fe57	-0.062985115
30	0x3d312449	0.043247495
31	0xbbd079db	-0.0063621826
32	0xbe0bc161	-0.13647987
33	0x3d0ba243	0.03409029
34	0xbdf9721e	-0.12179969
35	0x3d698eb1	0.057020847
36	0x3baf32f2	0.0053466493
37	0xbc7c60c7	-0.015403933
38	0x3bc8fa41	0.006133348
39	0xbdf3dc64	-0.119072706
40	0xbd8b220b	-0.067936026
41	0xbd4636a2	-0.048391946
42	0x3dffacd1	0.12484134
43	0xbde394a3	-0.111123346
44	0xbdf110a8	-0.11770755
45	0xbccc6a05	-0.024952898
46	0xbd40304e	-0.046921067
47	0x3dd109cf	0.10206949
48	0xbc66d804	-0.014089588
49	0xbda98e25	-0.08279065
50	0x3dc0a08e	0.094056234
51	0x3d2d4d1a	0.042309858
52	0x3e05e5f4	0.13076001
53	0x3daf03e1	0.08545662
54	0xbd920f71	-0.071318515
55	0x3c8c543b	0.017130008
56	0xbd31ca5e	-0.043405883
57	0xbd948a55	-0.07252947
58	0x3dbb86c5	0.091565646
59	0x3dbad8f3	0.09123411
60	0xbd9b30cd	-0.075776674
61	0xbb70b141	-0.0036726745
62	0xbe0d576e	-0.13802883
63	0xbdf42ca0	-0.11922574
64	0x3e0a7ad0	0.13523412
65	0x3be3bffe	0.0069503775
66	0x3d0c2422	0.034214146
67	0xbd041cda	-0.032254077
68	0x3c227793	0.009916204
69	0xbd8bdaf2	-0.0682887
70	0xbd9a5a2a	-0.07536729
71	0x3b83deb5	0.0040243515
72	0x3e11e59c	0.14247745
73	0xbd869245	-0.065708674
74	0x3da5d86b	0.08097919
75	0x3daeceda	0.085355476
76	0x3e09486b	0.13406532
77	0x3c4a6bbb	0.0123547865
78	0x3c3c25a8	0.011483587
79	0xbce5c95f	-0.028050123
80	0xbda9be06	-0.08288197
81	0xbd089380	-0.033343792
82	0x3db1b6c5	0.08677439
83	0x3de1322a	0.10995896
84	0xbb30897a	-0.0026937411
85	0x3de4247e	0.11139773
86	0x3dbaf889	0.091294356
87	0x3dfc7c1d	0.1232836
88	0x3dfcb7d7	0.12339752
89	0xbc47124d	-0.012150359
90	0xbd86557f	-0.06559276
91	0x3d4241a5	0.047425885
92	0x3e03a011	0.12854029
93	0xbc34984f	-0.011022641
94	0x3cc87b02	0.024472717
95	0x3dddf211	0.10837186
96	0xbe00f68b	-0.12594049
97	0x3d1ef085	0.038803596
98	0xbd60d17e	-0.054887287
99	0xbdfa68b0	-0.12226999
100	0xbdadacfa	-0.08480258
101	0x3caa394d	0.020779276
102	0xbd9a3daf	-0.075312965
103	0x3d84a479	0.06476683
104	0x3e0a64f0	0.13515067
105	0x3a0886a6	0.00052080525
106	0xbd3f6134	-0.04672356
107	0x3df49041	0.11941577
108	0xbdcab089	-0.09896953
109	0xbd8e8001	-0.069580086
110	0x3dc6fbad	0.09715972
111	0xbd247f8c	-0.0401607
112	0xbdd6b02a	-0.104828194
113	0xbddac095	-0.10681263
114	0x3ca7339c	0.020410351
115	0xbd46d590	-0.048543513
116	0x3c5c1fc3	0.013435307
117	0x3d401cee	0.04690259
118	0xbd6ede73	-0.058317613
119	0xbd34a2df	-0.04410064
120	0x3db33aca	0.087514475
121	0x3d79b717	0.060965624
122	0xbcc2bbf1	-0.023771258
123	0x3cdce469	0.026964383
124	0x3df4d396	0.11954419
125	0x3dbd68a3	0.092484735
126	0x3c23eb7c	0.010004874
127	0x3d39fa98	0.045405
128	0xbd146f23	-0.0362388
129	0xbdb696fc	-0.08915517
130	0xbd45c036	-0.04827901
131	0xbe025b89	-0.1273023
132	0x3d7736c3	0.06035496
133	0xbb04fdcf	-0.0020292883
134	0xbe09563c	-0.13411802
135	0x3cf7b42c	0.03023728
136	0x3cbe292c	0.023212992
137	0x3de2b258	0.110691726
138	0x3cef8576	0.029238444
139	0xbc735360	-0.014851421
140	0xbdc2c060	-0.09509349
141	0xbc9a0b8c	-0.018804334
142	0xbd57ac41	-0.05265451
143	0xbd35ae1b	-0.044355493
144	0xbe0f2cfd	-0.13982005
145	0xbdb2348d	-0.087014295
146	0x3d6e23c0	0.058139563
147	0xbccefb63	-0.025266355
148	0xbd657c81	-0.05602694
149	0x3d936fe7	0.07199078
150	0x3db162a5	0.08661393
151	0x3d131ce6	0.03591623
152	0x3d77b747	0.06047752
153	0x3dfb06f6	0.12257187
154	0xbd6ef817	-0.058342066
155	0xbd17ff1a	-0.03710852
156	0x3bb10370	0.005402021
157	0xbd19b241	-0.03752351
158	0x3d84efaf	0.064910285
159	0x3d783de1	0.060605887
160	0xbe0efacc	-0.13962859
161	0x3de7507c	0.11294648
162	0xbcc3ce93	-0.023902213
163	0x3d72476e	0.059150152
164	0x3dcc9c38	0.09990734
165	0x3d09b710	0.033621848
166	0xbd8ff176	-0.07028477
167	0xbd481f9d	-0.048858274
168	0x3dc145e2	0.09437157
169	0x3c0adbbd	0.008475241
170	0xbdb06add	-0.086141326
171	0x3e04f627	0.12984525
172	0xbdfb22f1	-0.12262524
173	0xbbc2c584	-0.005943956
174	0x3d5f6a07	0.054544475
175	0x3d660869	0.056160364
176	0x3c5ada28	0.013357677
177	0x3d846e64	0.06466368
178	0x3d560b30	0.052256763
179	0xbce43dc0	-0.027861476
180	0x3e05afb1	0.13055302
181	0xbd1c1470	-0.03810543
182	0x3d3642b9	0.044497225
183	0x3e1166e7	0.1419941
184	0x3df90265	0.1215866
185	0xbdda34a4	-0.10654572
186	0xbdf6ecde	-0.120568976
187	0xbe0d6afa	-0.1381034
188	0x3d9e6e42	0.07735874
189	0x3c8037d8	0.015651628
190	0xbda3ee79	-0.080044694
191	0x3dd9bd1b	0.10631772
192	0xbd7ad032	-0.061233707
193	0xbd0f5a2f	-0.034998115
194	0x3db89cd5	0.09014288
195	0xbe04436c	-0.12916344
196	0x3d920ff7	0.07131951
197	0x3ddcc39c	0.10779497
198	0xbdc402ca	-0.095708445
199	0x3c9df101	0.019279959
200	0xbc3abd60	-0.01139769
201	0xbdd276fa	-0.10276599
202	0x3e08a36d	0.13343592
203	0x3de9ba48	0.114124835
204	0x3c92a6c2	0.017901782
205	0x3bfc5231	0.0077002277
206	0xbd534bf8	-0.05158612
207	0x3c4d66f0	0.012536749
208	0xbd49b6a3	-0.04924644
209	0x3dcabf88	0.09899813
210	0xbdf93751	-0.12168754
211	0xbdb06973	-0.08613863
212	0xbcabc194	-0.020966329
213	0x3e02f046	0.1278697
214	0x3d9bf7e5	0.076156415
215	0x3daa205b	0.083069526
216	0x3df00a63	0.11720731
217	0x3a9025c9	0.0010997589
218	0xbde3bd12	-0.11120047
219	0x3d712ca9	0.058880482
220	0x3c02c69d	0.007981923
221	0x3ddd7386	0.1081305
222	0x3d32fbc2	0.043697126
223	0xbd14e26b	-0.03634874
224	0xbba269a1	-0.0049564396
225	0x3e0b9d63	0.13634257
226	0xbd0c1aa3	-0.03420509
227	0xbddd0baf	-0.10793244
228	0xbe0c3d6c	-0.13695306
229	0xbde9c162	-0.11413838
230	0x3e11842d	0.14210577
231	0xbdd1caac	-0.10243735
232	0xbdfa9ba9	-0.12236721
233	0xbdbe8b41	-0.09303904
234	0xbd94e293	-0.07269778
235	0x3c48e8ff	0.012262582
236	0x3d9fabfb	0.077964745
237	0x3ccde64f	0.025134234
238	0x3e06280d	0.13101216
239	0xbdfd6efe	-0.12374686
240	0xbbbac4cf	-0.005699731
241	0xbd2c6ad4	-0.042094067
242	0x3d4b9d02	0.04971028
243	0xbd959123	-0.07303073
244	0xbbdb41a2	-0.0066911737
245	0x3d0d5b1e	0.034510724
246	0xbc60f00f	-0.013729109
247	0x3e0cfa2b	0.13767307
248	0xbded0c0c	-0.115745634
249	0x3d8b1c9c	0.06792566
250	0xbe097da5	-0.13426836
251	0xbdec932b	-0.115515076
252	0xbca37c9d	-0.019956881
253	0x3caa1618	0.020762488
254	0x3d6f27e7	0.058387663
255	0x3dca651a	0.09882565

LinearLayer3.bias f4 [33]
0	0xbd765633	-0.0601408
1	0xbde55a63	-0.111988805
2	0x3da0673b	0.0783219
3	0x3dd051a4	0.10171822
4	0x3d5aecc1	0.053448442
5	0xbe0b3ea8	-0.1359812
6	0xbc84ced6	-0.016211908
7	0xbc89ea82	-0.016835455
8	0x3dec2810	0.11531079
9	0x3db56520	0.08857179
10	0x3d597e69	0.05309907
11	0x3dfc8e70	0.12331855
12	0x3e0547cc	0.1301567
13	0x3d80247a	0.06256957
14	0x3de1d139	0.11026234
15	0xbdbca61e	-0.09211372
16	0xbe092fe7	-0.1339718
17	0x3df2c85e	0.11854623
18	0x3dc5ab18	0.09651774
19	0xbdf5f7e1	-0.1201017
20	0x3d8b0c46	0.0678945
21	0x3e031513	0.12801008
22	0x3dd65079	0.10464568
23	0x3dedaf43	0.11605694
24	0x3da97bae	0.08275543
25	0x3d397dbf	0.045285936
26	0x3e097cd2	0.13426521
27	0x3d1046c8	0.035223752
28	0x3cff681b	0.031177571
29	0x3d892ab0	0.06697595
30	0x3cae8ce1	0.02130741
31	0x3c0e877a	0.008699292
32	0xbdc48887	-0.09596353

BN3.weight f4 [33]
0	0x3f7fbf58	0.9990134
1	0x3f805f35	1.0029055
2	0x3f802d22	1.0013773
3	0x3f805b97	1.0027951
4	0x3f7fb4d4	0.99885297
5	0x3f7ff9f7	0.9999079
6	0x3f80411e	1.0019872
7	0x3f7f4de9	0.99728256
8	0x3f7f66de	0.9976634
9	0x3f8061cb	1.0029844
10	0x3f7fa93b	0.998676
11	0x3f7f3f41	0.9970589
12	0x3f7ff6ba	0.9998585
13	0x3f7f734b	0.997853
14	0x3f804001	1.0019532
15	0x3f7f85b6	0.998134
16	0x3f801e80	1.0009308
17	0x3f7f5b5e	0.9974879
18	0x3f7f6d24	0.9977591
19	0x3f7f8495	0.9981168
20	0x3f7f260c	0.9966743
21	0x3f80142e	1.0006158
22	0x3f7f67eb	0.9976794
23	0x3f7f9a54	0.9984486
24	0x3f7f5600	0.997406
25	0x3f8029a0	1.0012703
26	0x3f7f450d	0.9971474
27	0x3f80424c	1.0020232
28	0x3f7f4c3a	0.9972569
29	0x3f7f7b6b	0.99797696
30	0x3f8010bc	1.0005107
31	0x3f7f7d70	0.9980078
32	0x3f7f7bd0	0.997983

BN3.bias f4 [33]
0	0xbb7912f2	-0.0038005677
1	0x3b8fdf52	0.0043906355
2	0x3b7339c7	0.0037113295
3	0x3b8a1869	0.0042143357
4	0x3b74aa2c	0.0037332876
5	0x3b8158cc	0.003947353
6	0x3b8e3fa0	0.004341081
7	0xbb895156	-0.004190604
8	0xbb8cf18d	-0.004301256
9	0x3b8a134c	0.004213726
10	0xbb868318	-0.004104983
11	0xbb87e57d	-0.00414723
12	0x3b89a18c	0.004200166
13	0xbb5fc58c	-0.0034144847
14	0x3b8dcbf9	0.004327294
15	0xbb83e160	-0.0040246695
16	0x3b691209	0.0035563728
17	0x3b6fb73c	0.0036577722
18	0xbb8a1fcc	-0.0042152163
19	0x3b87da21	0.004145876
20	0xbb89d7d0	-0.004206635
21	0x3b86f63b	0.0041187084
22	0xbb638b01	-0.0034720304
23	0xbb8b344a	-0.0042481767
24	0xbb84f4d0	-0.0040575042
25	0x3b87e277	0.0041468698
26	0xbb89da3d	-0.0042069242
27	0x3b8182f6	0.0039523793
28	0xbb8b6568	-0.004254032
29	0xbb854d62	-0.0040680626
30	0x3b807237	0.0039198655
31	0xbb8d627b	-0.0043147183
32	0xbb85ee06	-0.0040872125

BN3.running_mean f4 [33]
0	0xbd7f80a1	-0.06237853
1	0xbdb9d5d7	-0.0907399
2	0x3d844862	0.064591184
3	0x3def2afd	0.11678121
4	0x3d71e4b3	0.059055995
5	0xbe0056d9	-0.1253313
6	0x3a5de0eb	0.00084639963
7	0xbcd5422a	-0.026032526
8	0x3e04f6f0	0.12984824
9	0x3db2a3d9	0.08722658
10	0x3d7b50a5	0.061356205
11	0x3df19b98	0.11797255
12	0x3df29585	0.11844925
13	0x3d953fbb	0.07287546
14	0x3e0085fe	0.12551114
15	0xbdbeba8c	-0.09312925
16	0xbe11f798	-0.14254606
17	0x3e021a25	0.12705286
18	0x3dbc0d96	0.09182279
19	0xbe0624b1	-0.13099934
20	0x3d96d5b4	0.073649794
21	0x3e06f501	0.13179399
22	0x3e077a14	0.13230163
23	0x3de32067	0.11090165
24	0x3dd4a8c2	0.103837505
25	0x3d4373d7	0.047717895
26	0x3e17529b	0.14777605
27	0x3d0acb93	0.03388555
28	0x3d52c9ee	0.051462106
29	0x3da88b20	0.08229661
30	0xbab1a79e	-0.0013553982
31	0xbab22188	-0.0013590315
32	0xbdd7d69d	-0.10538981

BN3.running_var f4 [33]
0	0x3d80b106	0.062837645
1	0x3e3e4085	0.185793
2	0x3d875ffa	0.06610103
3	0x3de5b7b1	0.11216677
4	0x3de4e9d2	0.1117741
5	0x3e5f6d43	0.21819024
6	0x3e625872	0.22104052
7	0x3eae5bbb	0.3405436
8	0x3e492f89	0.1964704
9	0x3dc88ed8	0.0979287
10	0x3e074a5a	0.13211957
11	0x3e8564b9	0.26053408
12	0x3e890755	0.26763406
13	0x3f212c34	0.62958074
14	0x3de857d2	0.113448754
15	0x3ddff713	0.109357975
16	0x3dfeb576	0.12436955
17	0x3ef8e079	0.4860876
18	0x3e26b78d	0.16280957
19	0x3e103ab1	0.14084889
20	0x3e319a8d	0.17344113
21	0x3db59c76	0.08867733
22	0x3e8100f7	0.2519605
23	0x3de0006a	0.10937579
24	0x3eaf27e2	0.34210116
25	0x3e234047	0.15942489
26	0x3e86636b	0.26247725
27	0x3e4a6b09	0.19767393
28	0x3def9bf9	0.11699671
29	0x3e1173f1	0.14204384
30	0x3d8b853d	0.068125226
31	0x3e85b51a	0.26114732
32	0x3de2c0dd	0.11071942

LinearLayer4.weight f4 [1, 33]
0	0xbd169459	-0.03676257
1	0x3cac00f1	0.020996543
2	0x3d79e105	0.06100561
3	0x3d478ee8	0.04872027
4	0x3e14fd45	0.1454974
5	0x3e283a45	0.16428478
6	0x3bb95ffa	0.0056571933
7	0xbd94e068	-0.072693646
8	0xbdc792ff	-0.09744834
9	0x3d4964dc	0.049168453
10	0xbd0dc265	-0.034609217
11	0xbceae575	-0.028673867
12	0x3da96658	0.08271474
13	0xbaef3f17	-0.0018253055
14	0x3d2184fc	0.039433464
15	0xbc52f00f	-0.012874617
16	0x3d37144c	0.04469709
17	0x3e29fc9b	0.16600268
18	0xbdaa12c0	-0.083043575
19	0x3e249d0f	0.16075538
20	0xbdeff864	-0.117172986
21	0x3c730829	0.0148334885
22	0xbaeb7221	-0.001796309
23	0xbdc37204	-0.09543231
24	0xbe296256	-0.16541418
25	0x3e1beea3	0.15227751
26	0xbe084c04	-0.13310248
27	0x3dd183cb	0.10230216
28	0xbde2e467	-0.110787205
29	0xbb9ffae7	-0.004882205
30	0x3d98f42e	0.074684486
31	0xbe01913a	-0.12653056
32	0xbdf14120	-0.1178
