trained_models_sagnik/dnn_model_mae.pt (torch, 230752 bytes, 19 tensors)

LinearLayer1.weight f4 [100, 484]
000000 26 9e 2a 3d 39 d3 4e bc 68 84 aa 3c 22 c7 15 bd
       0.04165473 -0.012623602 0.02081509 -0.03656686
000010 56 80 24 3c a3 85 1b 3d 78 ac e3 bc 5a d9 44 3c
       0.010040363 0.037969243 -0.0277922 0.012014711
000020 c7 90 d9 3c 44 38 50 3b c8 57 c1 3b 53 ab 3e bc
       0.026558293 0.0031771818 0.005900357 -0.011637527
000030 5c 38 82 bc f9 9d 56 3c d3 51 84 3c a9 eb 1c bd
       -0.015896015 0.013099187 0.016152298 -0.03831068
000040 e8 be a2 bc 5a 3c 34 bd 35 22 83 3b 5d d1 98 3c
       -0.019866422 -0.04400287 0.0040018805 0.01865452
000050 ca 13 13 bd 34 5c 24 bd 5d f1 f0 bb a4 23 9e bc
       -0.035907544 -0.040126994 -0.0073529915 -0.019304104
000060 33 f1 b1 3c 17 d9 9b bc 8e 4b 01 3b a8 bc 91 3c
       0.021721458 -0.019024415 0.0019728872 0.017790154
000070 5c b4 ab 3b 34 a7 4b 3c b6 47 c5 3b bc 42 d9 bc
       0.0052400064 0.012430001 0.0060205115 -0.02652108
000080 6b 68 16 3d a2 70 41 3d 93 84 a1 bc 33 69 43 bd
       0.036720674 0.047226556 -0.019716537 -0.047707748
000090 e3 18 a7 3b 1d 4e 6b 3c 34 74 16 3d a5 da 2c bd
       0.0050994023 0.014361885 0.036731914 -0.042200703
0000a0 ad 57 1d bd cf bc c2 3b 2d 3f 14 3d 82 93 c0 bb
       -0.038413692 0.005942918 0.03619306 -0.0058769593
0000b0 d9 d6 aa 3c bb 9c c7 bc 36 c8 ad bc 14 fd bf 3c
       0.0208544 -0.024366727 -0.021213632 0.023436107
0000c0 71 12 2a 3c 22 20 f0 bb a9 cb d1 bb 57 0c 4c bb
       0.010380373 -0.0073280493 -0.006402452 -0.0031135285
0000d0 08 0b 95 3c 40 b5 97 ba b0 50 09 bd 54 b7 4c bb
       0.018193737 -0.0011574402 -0.033524215 -0.0031237202
0000e0 fe d9 06 3d 2f a0 98 bc 34 3b e9 bc 4e 72 80 3b
       0.032922737 -0.018631069 -0.028470613 0.003919876
0000f0 58 31 42 bd 5d 88 74 3c 42 76 84 bc 52 e5 0a 3d
       -0.04741034 0.01492509 -0.016169671 0.033910103
000100 07 a9 ed bb 64 29 15 bb 3f 35 2e bd 44 74 8f 3c
       -0.0072528156 -0.0022760266 -0.04253125 0.017511494
000110 3b 58 43 3c 56 57 9c 3b f5 07 d9 bc 68 2b 71 bc
       0.011922891 0.0047711534 -0.026493052 -0.0147198215
000120 28 cd 23 bd 3c 15 da bc 02 5e d3 3c 99 b1 b5 bc
       -0.039990574 -0.026621453 0.025801662 -0.022179412
000130 4c 4f ea 3c 0b 0d 8e bc 35 6f 11 bc f4 72 03 bc
       0.028602265 -0.017340204 -0.0088766115 -0.008023012
000140 b6 2f f1 3c 36 d0 6f bc 0e 23 e6 bc 77 a8 0a 3d
       0.029441696 -0.014637044 -0.028092887 0.033852067
000150 57 f7 f3 bb 00 dc ac 3a 9f 69 fc bc 0c 5a 10 bd
       -0.0074452567 0.0013188124 -0.030812083 -0.035242125
000160 e2 21 e3 bb e2 ab 40 3d 27 ec e7 bc 2d ec c3 3c
       -0.0069315294 0.04703892 -0.028310848 0.023916328
000170 37 69 f3 3b 39 38 94 3b bc 7c 15 3d 8a 62 54 bc
       0.007428314 0.004523304 0.03649591 -0.012962947
000180 16 0a aa 3b 2f 20 b9 3c d0 30 a7 bc 30 47 23 bd
       0.0051891906 0.022598354 -0.020409018 -0.03986281
000190 0f e9 8d 3c 47 1e a9 3c 05 2d 86 3c ee bb 3f 3c
       0.017323045 0.02064432 0.016378889 0.011702521
0001a0 2e 1c ce 3c e3 87 88 3a df dd 38 3d c6 ed 2b bd
       0.025159921 0.0010416474 0.045133468 -0.041974805
0001b0 ef 69 b6 3c ac 44 8d bc 73 d9 1c 3d 0d 01 18 bc
       0.02226731 -0.01724466 0.038293313 -0.009277594
0001c0 c8 d6 b8 3c ff a1 00 bc bb 91 d5 bb 4c 69 0d bd
       0.022563353 -0.007851123 -0.0065176166 -0.034524247
0001d0 62 d8 09 3d b1 8c 9b 3c ac 3e 04 bc 7b f5 c9 3c
       0.033653624 0.018987985 -0.008071583 0.024653187
0001e0 37 20 b9 bc d6 f7 69 bc fd 2c 2d 3d 08 e3 22 3d
       -0.022598369 -0.01428028 0.042279232 0.039767295
0001f0 13 54 eb 3b eb 5c ad bc a0 73 80 bc db 08 a6 3c
       0.0071816533 -0.02116247 -0.015680134 0.020267894
000200 1f 05 bb 3c ae 52 01 3d 2a 3d 25 bd 79 64 1d bd
       0.02282959 0.03157299 -0.040341534 -0.038425896
000210 cb 81 82 bc 46 dd 15 bc 84 ab d3 3c 41 62 0e 3c
       -0.01593103 -0.009146994 0.025838621 0.008690418
000220 21 e8 0d bd 45 b3 ca bb 49 86 be 3c e6 c5 27 bb
       -0.034645204 -0.0061859214 0.023257392 -0.0025600134
000230 ea 2b b0 bc ad e1 23 bd a9 47 ee 3c 2e c1 5d 3d
       -0.021505315 -0.040010143 0.029086905 0.05413931
000240 36 8d 01 3c 9f 05 66 3c f0 75 c9 ba a1 2e 35 3c
       0.0079072025 0.014039426 -0.0015370231 0.0110584805
000250 de 6e 07 bd 12 29 5c bc f5 71 9e bc 3c 5c 8d bc
       -0.033064716 -0.013437526 -0.019341448 -0.017255895
000260 f1 75 1b 3d 1d 29 34 bd c0 5c 02 3c ce b9 d7 3c
       0.037954275 -0.04398452 0.007956684 0.026333716
000270 43 3b 1d bd 89 19 79 bc 6d 7b 23 3d 2d a0 58 3c
       -0.038386595 -0.015203842 0.03991263 0.013221783
000280 64 81 13 bd 68 3c 13 bd 76 69 98 bc 21 61 96 b9
       -0.03601207 -0.03594628 -0.018604975 -0.00028682596
000290 6a f4 34 bc 07 ce 08 3d 61 2b a3 bc 7e 08 bb 3c
       -0.011044601 0.033399608 -0.019918146 0.022831198
0002a0 15 86 c4 3c fb 8a 52 bc 06 6d 95 3c cc 5e 55 3b
       0.023989717 -0.012850518 0.018240463 0.0032557724
0002b0 4f 86 c5 bc d9 be ca 3c bd 0b 22 3d bc 0c 39 ba
       -0.024111895 0.024749206 0.039561976 -0.00070590875
0002c0 58 56 03 bd f6 5c 2d bc 5c 0e a8 b9 e9 85 11 bd
       -0.032064766 -0.010581246 -0.00032054156 -0.035528097
0002d0 a1 df cc 3c d0 a9 0a bd 43 ff fa bc b4 0f ef 3c
       0.025008978 -0.033853352 -0.030639296 0.029182293
0002e0 f1 06 0e 3d 66 6f e7 3c 7c 7b 70 bb 33 86 0a 3d
       0.03467459 0.028251361 -0.0036694696 0.03381939
0002f0 14 3a 7f bc 04 b7 64 ba 5e 19 88 bc 90 a6 1b bd
       -0.015577812 -0.0008724781 -0.016613659 -0.038000643
000300 a7 6e bd 3c 62 5a a5 3c f9 df 13 3d a3 b4 0c 3d
       0.023124052 0.0201847 0.03610227 0.034351956
000310 14 bc 1e bd 3e d5 4f bc 9d 56 1b bd fd 2f 9c bc
       -0.038753584 -0.012685118 -0.037924398 -0.019065851
000320 25 bf e3 bb 86 27 a9 bb c8 2a 34 3d cc 4d 30 3d
       -0.0069502764 -0.0051621823 0.043986112 0.043042943
000330 d8 54 5c 3c e9 c3 d3 bc 81 5b cc bb d1 38 9c 3c
       0.013447963 -0.025850253 -0.006236494 0.01907006
000340 c8 71 27 3d 52 34 45 3d 08 2e 36 3d 0c 83 ff bc
       0.040879995 0.0481456 0.044477493 -0.031190418
000350 8d 0b 59 bc 1f 17 37 3d c6 03 41 3a 08 d0 85 bc
       -0.013247383 0.044699784 0.0007362928 -0.016334549
000360 c4 06 8e bc 1f 91 4d bc 08 7c e3 bc 5a 97 31 3d
       -0.01733721 -0.012546807 -0.027769104 0.04335723
000370 00 1d fd ba a2 b1 b8 3c 2c 45 81 3c 7a 64 30 3d
       -0.0019311011 0.02254564 0.015780054 0.043064572
000380 03 33 e3 3c 6b 1b 2a bb 3a af a5 3c cd fa d8 3c
       0.027734285 -0.0025956284 0.020225156 0.026486779
000390 de ea 42 3c a2 92 dc 3b f6 77 c2 3b ab 87 35 bd
       0.011896817 0.006731347 0.0059347106 -0.044318836
0003a0 e2 c7 86 3c a7 46 8d 3b 65 25 0e 3d 97 1e 7d bc
       0.016452733 0.004311401 0.03470363 -0.015449188
0003b0 c3 93 34 bd 95 a0 1c bd 54 fb a2 bc b8 d7 9d bc
       -0.04408623 -0.03823908 -0.019895233 -0.019267902
0003c0 d0 59 bb bc bc 37 f1 bc 6b 17 87 bb f6 01 96 3c
       -0.022869974 -0.029445522 -0.0041226647 0.018311482
0003d0 ca 2c 10 3d f3 29 15 3d 4a d8 3d 3d b0 95 1c bd
       0.035198964 0.03641696 0.046348847 -0.03822869
0003e0 04 1f 00 3c 94 0b 0e 3c e2 be 3e ba b2 b3 24 3d
       0.007819895 0.008669753 -0.00072763686 0.040210433
0003f0 11 0f 07 bb ce 8d d6 bc 2d e3 14 bd 6a ff 00 bc
       -0.0020608346 -0.026190665 -0.036349464 -0.007873395

LinearLayer1.bias f4 [100]
000000 e2 ca 00 bd 41 62 e7 3c fd 2d 22 3d c1 49 93 3b
       -0.031443484 0.028245093 0.03959464 0.004494876
000010 c8 27 f4 3a f7 7d e9 bc 91 44 82 bc 1f cb b6 3b
       0.0018627578 -0.028502448 -0.015901836 0.005578413
000020 cc fa 15 bd 25 fd 5e bc 71 6b ce 3c 59 a7 c2 bc
       -0.03661613 -0.013610159 0.025197716 -0.023761438
000030 5a ad e0 3c 2c dd 4f 3c 90 cb 66 ba ef b3 74 3c
       0.02742641 0.012687009 -0.0008804137 0.014935478
000040 58 52 16 bd d9 97 37 bc 1e 61 d2 bc d9 99 5f 3c
       -0.036699623 -0.011205637 -0.025681075 0.01364752
000050 20 fa 8d bb e1 6e 05 bd 15 4f 28 bd 4a ec 2c bc
       -0.0043327957 -0.032576445 -0.041091044 -0.010554383
000060 43 4a e5 bb 73 c0 2d 3c 66 86 8a 3b d7 09 49 bb
       -0.006997378 0.0106049655 0.0042274473 -0.003067603
000070 12 5d 08 3d 31 3f c6 3c ba 0b 37 b9 e1 5c 21 bc
       0.033291884 0.024200054 -0.00017456608 -0.009848804
000080 cb a4 13 bd 22 19 6a bb 3e ca 3f 3c 78 f8 2d 3d
       -0.03604583 -0.0035720547 0.011705933 0.042473286
000090 43 e7 1e bd 89 c2 19 3b 7e a3 b3 3b e7 04 6d 3c
       -0.038794767 0.00234619 0.0054821363 0.014466501
0000a0 35 0c 13 3b 12 7c 2d 3d 59 3e 26 3d a0 70 1d 3d
       0.0022437696 0.04235465 0.040586803 0.038437486
0000b0 1d 8c 22 3c bd 3a b6 3c 2c 01 d9 ba 81 1c 73 3c
       0.009921101 0.022244805 -0.0016556135 0.014838339
0000c0 91 03 0f 3d 21 f3 0a 3d 7e fa 03 bd f5 01 b8 3c
       0.03491551 0.033923272 -0.03222131 0.02246187
0000d0 4d 0a 8b 3c 49 59 a9 3c 9c 58 d3 bc 31 da 87 bc
       0.016972685 0.020672457 -0.025799088 -0.016583534
0000e0 9a 84 ac bc e4 bc 39 3d d7 2d 06 3d ad a3 c5 3c
       -0.021059323 0.045346156 0.03275856 0.024125898
0000f0 58 c1 f6 3b d8 64 8e 3b c7 b1 fe bc fe 41 0d 3d
       0.0075303726 0.0043455176 -0.03109063 0.034486763
000100 57 fb de bb f9 2b 39 3d 87 2c b7 38 ae 72 39 3c
       -0.0068048644 0.04520795 8.734414e-05 0.011318846
000110 52 13 68 3b 39 c5 8b 3b 66 fa a5 3b 2c 8a 8a bc
       0.0035411906 0.004265454 0.00506525 -0.016911589
000120 a2 82 33 bd 23 c9 7e 3c 35 37 a7 3c 22 f4 f8 3c
       -0.043825753 0.015550884 0.020412067 0.03038985
000130 00 d0 3b bd 5d e7 34 bd 0a 9c b6 3b 19 f3 24 bd
       -0.04585266 -0.044165958 0.0055728005 -0.0402709
000140 8f 37 97 3b b7 af 10 bd 0d 4c c1 bb f2 e1 11 bd
       0.0046147774 -0.035323825 -0.0058989585 -0.03561587
000150 60 39 30 3d 3a 6e 9d bb ff f3 2d bc 81 b3 ce bb
       0.043023467 -0.0048044 -0.010617255 -0.0063080196
000160 0c 47 23 bd 0c c8 91 bc 7d a9 74 bc 4b b5 a4 bc
       -0.039862677 -0.017795585 -0.014932987 -0.020105978
000170 37 ae 09 3d 5c 27 f3 bc fc d5 a3 3b 9d 2c 1c 3d
       0.03361341 -0.029681854 0.004999874 0.038128484
000180 54 2a 0f 3c 13 28 aa bc ca ca b6 3c 51 fe 7f 3b
       0.008738119 -0.020771062 0.022313494 0.0039061496

BN1.weight f4 [100]
000000 ca 90 7a 3f 8e 65 7f 3f 81 8b 80 3f 4b 71 7d 3f
       0.9787718 0.99764335 1.0042573 0.99000996
000010 1f 7b 7f 3f ab 46 7e 3f c3 e3 7f 3f 2a e4 7c 3f
       0.9979724 0.9932658 0.9995691 0.9878565
000020 8d 68 7f 3f d9 44 80 3f 3e 37 7e 3f fb 08 7d 3f
       0.99768907 1.0021011 0.9930304 0.9884183
000030 a8 e7 82 3f bb 7e 81 3f f5 02 80 3f 2f 7f 7c 3f
       1.0226946 1.01168 1.0000902 0.98631567
000040 00 e4 7c 3f 61 0e 7c 3f d9 8e 7e 3f ce 21 81 3f
       0.987854 0.9845944 0.9943672 1.0088441
000050 81 20 7c 3f a0 16 7f 3f e5 ca 80 3f 50 08 81 3f
       0.984871 0.996439 1.0061918 1.0080662
000060 89 34 7c 3f d1 87 7e 3f 05 bd 7e 3f 16 bd 81 3f
       0.9851766 0.9942599 0.9950717 1.013583
000070 dc a4 80 3f f9 f1 80 3f 26 ae 7c 3f 38 b4 80 3f
       1.0050311 1.0073844 0.9870323 1.0054998
000080 6b 8d 7a 3f a3 dd 7e 3f 3c 28 81 3f 92 f1 81 3f
       0.97872037 0.9955694 1.0090404 1.0151846
000090 cf 04 80 3f 0f 65 7c 3f 29 a0 80 3f 36 14 80 3f
       1.0001467 0.98591703 1.0048877 1.0006168
0000a0 51 56 80 3f 0c 7e 81 3f 56 af 7f 3f 91 72 82 3f
       1.0026342 1.0116591 0.99876916 1.0191213
0000b0 88 2e 7f 3f e3 8f 80 3f a2 4e 80 3f d2 b0 7e 3f
       0.99680376 1.0043911 1.0023997 0.99488556
0000c0 a2 5a 80 3f 29 94 7e 3f 95 63 81 3f a9 b4 80 3f
       1.0027659 0.99444824 1.0108515 1.0055133
0000d0 8d 6f 82 3f ae cf 82 3f 5f af 7f 3f f8 b8 7e 3f
       1.0190293 1.0219629 0.9987697 0.9950099
0000e0 45 e6 82 3f c5 b5 80 3f 9f 37 7f 3f db 34 7f 3f
       1.0226523 1.0055472 0.99694246 0.99690026
0000f0 be 18 83 3f 09 5c 82 3f 51 ef 7b 3f df 03 7f 3f
       1.0241926 1.0184337 0.9841204 0.9961528
000100 23 2a 82 3f 96 33 7b 3f 7f a0 7e 3f ca d8 7b 3f
       1.0169109 0.9812559 0.9946365 0.9837767
000110 44 8d 81 3f f3 20 7d 3f b8 0a 7f 3f a2 0c 7c 3f
       1.0121236 0.988784 0.9962573 0.98456776
000120 6a 48 7c 3f 65 6d 84 3f 02 c6 7e 3f 43 7e 7f 3f
       0.98547995 1.0345885 0.99520886 0.99802035
000130 b5 84 7f 3f e1 4f 7e 3f f6 a1 81 3f 99 ec 7f 3f
       0.9981187 0.99340636 1.0127552 0.99970394
000140 e6 40 80 3f a3 a6 7b 3f 24 b9 82 3f 31 94 81 3f
       1.0019805 0.9830114 1.021275 1.012335
000150 dd dd 83 3f 16 90 7d 3f c5 78 7e 3f 28 3a 7f 3f
       1.0302082 0.9904798 0.9940303 0.99698114
000160 34 42 7d 3f a0 4b 7b 3f f6 db 80 3f 51 53 7d 3f
       0.9892914 0.9816227 1.0067127 0.98955256
000170 dc 59 7d 3f 3e b3 80 3f bd 7c 7e 3f 6f 7a 7e 3f
       0.9896524 1.00547 0.99409086 0.9940557
000180 f0 89 7e 3f 82 b5 7f 3f 80 98 7f 3f e9 bf 80 3f
       0.99429226 0.99886334 0.9984207 1.0058566

BN1.bias f4 [100]
000000 cc 95 8d 3a 30 bc f2 3b 5f 01 7c 3c 7a 1b 89 bc
       0.0010802089 0.0074076876 0.015381186 -0.016736735
000010 a2 bb 58 3b 5d b4 ea 3b 39 cd be b9 a5 a6 70 3c
       0.0033070822 0.0071626143 -0.00036392527 0.014688169
000020 5e 61 1f 3c 03 43 ca ba 93 81 e6 bb 64 2e 61 bc
       0.009727804 -0.0015431348 -0.0070344894 -0.013743971
000030 aa fe f8 3b 7a f3 93 3b 51 b1 12 3c f0 90 b0 bb
       0.0075987177 0.0045151087 0.008953408 -0.0053883716
000040 88 cc 59 bc 5b db 11 bc a7 8b 28 3b 1a 89 36 3c
       -0.013293393 -0.008902396 0.0025718005 0.011141086
000050 c1 b6 83 3a 29 51 0b bc 74 0e bd 3b cd 56 fa 3b
       0.0010048972 -0.008503237 0.005769545 0.007639742
000060 0c b4 18 bb 5c 68 77 3c a7 00 cb bb ff 36 5c 3c
       -0.0023300676 0.015100565 -0.006195146 0.013440846
000070 05 eb 56 3b 9f 0f c6 3b b7 ad 56 3b ad 9a 65 3c
       0.003279389 0.0060443426 0.003275735 0.014013928
000080 7f 93 a0 bc b6 21 70 3c d4 7f be 3c 42 e8 8a 3c
       -0.019601582 0.014656475 0.023254313 0.016956452
000090 75 83 6c 3b 62 7f 57 bb 70 89 95 3b 71 ac 67 3c
       0.0036089097 -0.0032882323 0.004563503 0.014140234
0000a0 71 24 33 3c a0 e3 94 3b f5 54 02 3b 78 92 1d 3c
       0.010933981 0.0045437366 0.0019887064 0.00961744
0000b0 66 6d 71 ba dc 3c 84 3c 58 fd 48 bc 61 fe 05 bc
       -0.0009209722 0.016142301 -0.012267433 -0.008178324
0000c0 10 33 8c ba ba d7 ca bb a3 c5 0a 3c 60 11 96 bb
       -0.001069637 -0.0061902674 0.008469972 -0.004579708
0000d0 04 a2 f6 3c 1e 41 c9 3c e5 32 85 3c 39 62 4f 3b
       0.030106552 0.024567183 0.01625962 0.0031644239
0000e0 9a 57 46 3c f0 b4 58 3c c2 9d 9c 38 60 16 6c 3c
       0.012105847 0.013226733 7.468044e-05 0.0144096315
0000f0 97 45 f9 3c 99 ef a8 3c 8c b6 fc bb 0e d3 d1 ba
       0.03042869 0.020622062 -0.007712191 -0.0016008334
000100 82 93 ae 3c 0a 40 a0 bb 1c 10 48 bc e5 ce 76 3b
       0.021310572 -0.0048904466 -0.012210872 0.003765994
000110 10 38 40 3c c7 5f 5e bb bd aa dc bb 4a 87 1e bc
       0.011732116 -0.00339316 -0.006734221 -0.00967581
000120 d8 3a c8 bb 2e 14 b6 3c 2c e3 8e bc c7 fa 71 3b
       -0.0061105303 0.02222642 -0.017442308 0.0036923157
000130 98 d9 98 bc 7c 38 f8 bb 42 7b 90 3b ac 0f 6d 3c
       -0.018658444 -0.007575093 0.0044092247 0.0144690685
000140 3a 7e 48 ba ca 4e 4c bc 72 a7 08 3c 89 30 a4 3c
       -0.0007648204 -0.012469957 0.008340703 0.020042675
000150 f7 d0 b5 3b c3 82 23 39 d7 85 3e 3c 9e 1a f7 ba
       0.005548592 0.00015593604 0.01162859 -0.0018852537
000160 c3 f0 3a 3b 03 be 57 ba d0 90 67 3b 19 13 df 3b
       0.0028524853 -0.0008229913 0.0035334118 0.0068076965
000170 b3 e7 1c bc 35 11 c9 3c f6 11 13 3c 1b fa c3 bb
       -0.009576726 0.024544338 0.00897645 -0.0059807426
000180 d5 ef 7e 3c e2 11 b2 3b be ec 46 3b bd 00 91 3c
       0.01556011 0.0054342607 0.0030353512 0.017700547

BN1.running_mean f4 [100]
000000 16 ef 4d bf 3e cd ec 3e ba e4 21 c0 54 7a 86 3f
       -0.8044294 0.46250337 -2.5295854 1.0506082
000010 8b 67 33 40 26 a1 bb bf 88 e4 fd bf 91 98 2a bf
       2.8031948 -1.4658554 -1.9835367 -0.6663905
000020 45 5f 85 bf c4 c1 90 3f 7b a3 dd 3f 22 f1 46 3f
       -1.0419699 1.1309133 1.7315515 0.7771169
000030 f9 24 b5 3f 8e 3b 52 40 58 ab e9 3f 98 1d 00 bd
       1.4151908 3.284885 1.8255415 -0.031278223
000040 5b 25 e6 be 03 48 1b c0 5d 09 80 be 67 02 9e 3f
       -0.44950375 -2.4262702 -0.25007144 1.2344483
000050 40 b7 9a bf ed cd 43 40 69 d8 a1 3e d7 37 e5 3f
       -1.2087173 3.0594437 0.3161042 1.7907666
000060 58 74 06 bf bb f6 09 c0 4f 54 83 bf b2 34 24 3f
       -0.52521276 -2.1556842 -1.0260104 0.64142907
000070 de c0 ef 3f 43 d4 20 3f 4f 3d 0a c0 16 c7 9e bf
       1.8730733 0.62823886 -2.159992 -1.2404506
000080 67 8c 4c bf 6b 1a 24 3f b3 f6 e0 bf 9f ca 58 bf
       -0.79901737 0.6410281 -1.7575287 -0.84684175
000090 8d 22 a1 3d 55 74 7f 3f b8 f6 a8 bf de 55 c1 bf
       0.07867918 0.99786884 -1.3200293 -1.510433
0000a0 ef e4 c8 3f 14 88 fb 3f c7 90 f0 bc ce 23 c1 3f
       1.5694865 1.9650903 -0.02936591 1.5089052
0000b0 69 17 8a 3f 26 19 11 c0 ad ac cb 3f 36 ff d4 3f
       1.0788394 -2.26716 1.5912071 1.6640384
0000c0 c6 e7 49 bf df bd 52 3f 76 42 2e 3f a4 15 ed 3e
       -0.78869283 0.8232097 0.6807016 0.46305573
0000d0 49 87 a8 bf 78 b4 14 bd fd c8 10 c0 cf 16 cf bf
       -1.3166286 -0.03630492 -2.2622674 -1.6178836
0000e0 64 f6 53 3f 91 15 c9 be db ff 88 3f 2f 6a 4b 3e
       0.8279784 -0.39274266 1.0703081 0.19864725
0000f0 cc 1a 2b 3e 90 4f e2 3f 9e c9 4e c0 57 95 3b 3f
       0.16709441 1.768053 -3.2310557 0.7327475
000100 1a b5 00 be 1e 6a 7b 3f 04 89 e6 bf 6b df f9 bf
       -0.12569085 0.98208797 -1.8010564 -1.9521307
000110 52 69 24 3f 51 18 36 3d 0f d6 94 bf c4 03 55 3f
       0.64223206 0.044456784 -1.1627825 0.8320887
000120 e0 28 f3 bf 6a 65 a8 3f 4c 07 b1 3f 15 bd a7 be
       -1.8996849 1.3155949 1.3830352 -0.32761446
000130 38 08 f6 bf db 8e 9e bf 42 09 12 40 8f 4e eb be
       -1.9221258 -1.2387346 2.281815 -0.45958373
000140 e0 d1 18 c0 2e 8c 24 be de dd b2 3f 46 fa a0 3f
       -2.3878098 -0.160691 1.3973958 1.2576377
000150 dc 90 b3 3f cf 3d 7e bf c6 6a 0b bf e9 70 45 40
       1.4028583 -0.9931306 -0.544598 3.0850165
000160 7d b0 ff 3f 29 39 1b c0 23 fd cd 3f 2a 0c 0c 3f
       1.9975735 -2.4253638 1.6092876 0.5470606
000170 00 3b 13 40 70 e5 d8 3f 89 e4 f1 3e a8 39 10 3e
       2.300476 1.6945019 0.4724467 0.14084494
000180 02 9b 35 c0 0a 4d db 3f 1f 69 00 40 4e 38 99 3f
       -2.837586 1.7132885 2.006416 1.1970308

BN1.running_var f4 [100]
000000 59 5e 88 44 af 69 96 44 e9 64 71 45 2f ea 2b 44
       1090.9484 1203.3026 3862.307 687.6591
000010 d5 81 95 45 31 9c af 44 50 ea d0 44 7d 50 d0 44
       4784.229 1404.881 1671.3223 1666.5153
000020 50 19 f0 44 9d 98 c3 44 33 95 34 45 cd 45 d9 44
       1920.791 1564.7692 2889.325 1738.1813
000030 16 61 99 44 05 18 bd 45 3b 86 b3 44 17 ca ad 44
       1227.0339 6051.0024 1436.1947 1390.3153
000040 57 61 97 44 47 26 93 45 c2 84 a2 43 ee 5f b2 44
       1211.0419 4708.7847 325.03717 1426.9978
000050 56 37 7f 44 82 a1 93 45 c9 a3 e0 44 73 75 77 45
       1020.8646 4724.1885 1797.1183 3959.3406
000060 ec 83 4a 45 26 da d6 44 ec d7 6e 44 85 e6 3b 44
       3240.245 1718.8171 955.3738 751.60187
000070 a8 d2 e8 44 6b b4 f1 44 ea 4e a6 44 59 02 6a 44
       1862.583 1933.6381 1330.4661 936.0367
000080 c2 bf 2b 45 ed ef cd 44 38 71 92 45 d5 57 37 44
       2747.9849 1647.4977 4686.1523 733.3724
000090 38 30 24 45 21 82 e2 43 23 8a 04 45 3e b9 b3 44
       2627.0137 453.01663 2120.6335 1437.7888
0000a0 a8 bb 5f 44 b6 1a cc 44 a9 40 1b 45 43 af ce 44
       894.9321 1632.8347 2484.0413 1653.4769
0000b0 cc 78 53 44 9e 3d 35 45 92 2f 22 45 dd 32 2c 45
       845.88745 2899.851 2594.9731 2755.179
0000c0 8f e7 21 44 10 df 15 45 db 8d e1 44 06 ea 7f 44
       647.6181 2397.9414 1804.433 1023.6566
0000d0 cf c6 f5 43 fb f0 49 44 2a 51 39 45 0a 4f ea 44
       491.5532 807.7653 2965.0728 1874.47
0000e0 85 03 b2 44 81 a4 86 44 96 95 38 45 23 0e 8e 44
       1424.11 1077.1407 2953.349 1136.4418
0000f0 b8 35 22 44 d0 1f 18 45 23 7e 91 45 96 cd 2f 45
       648.83936 2433.9883 4655.767 2812.849
000100 7f 76 06 45 40 b7 8b 44 c6 42 d1 44 bb ac 2d 45
       2151.406 1117.7266 1674.0867 2778.7957
000110 8f bb 08 44 3a 4c b8 44 a3 d2 99 44 5f 6d 9c 44
       546.9306 1474.3821 1230.5824 1251.4178
000120 70 04 26 45 60 ff a1 44 bd 67 b9 44 b4 9b 51 44
       2656.2773 1295.9805 1483.2418 838.43286
000130 72 eb 1c 45 92 13 e8 44 b9 a7 33 45 f1 2d 46 44
       2510.7153 1856.6116 2874.4827 792.71783
000140 16 87 d5 44 8d 74 1f 44 c8 eb 09 45 ed b8 12 45
       1708.2214 637.8211 2206.7363 2347.5579
000150 12 92 65 44 31 93 7a 44 f6 5d bd 44 5e 16 7e 45
       918.28235 1002.29987 1514.9363 4065.398
000160 54 e1 ba 44 ed e0 f4 44 41 15 9b 44 22 d1 85 44
       1495.0415 1959.0289 1240.6642 1070.5354
000170 48 c3 89 45 3e 93 5c 45 46 ba 4e 45 d1 25 0d 45
       4408.41 3529.2026 3307.642 2258.3635
000180 49 6d 38 45 85 34 4d 45 b2 af 4e 45 90 82 ac 44
       2950.8303 3283.2825 3306.981 1380.0801

LinearLayer2.weight f4 [50, 100]
000000 85 b0 6e bc 3b 19 43 bd 90 67 9b bc 69 54 6f bd
       -0.014568453 -0.047631484 -0.01897028 -0.05843011
000010 0a bd aa bd c1 82 79 bd ea 11 0a bd 21 cb 08 3d
       -0.083368376 -0.060915712 -0.03370849 0.033396844
000020 d2 26 f0 bc 30 7a 92 3d 56 71 2f 3d 8a 81 5d bd
       -0.029315386 0.07152212 0.042832695 -0.054078616
000030 51 c5 c8 3d 94 dd 71 3b a0 1c 9b 3d 7f cb 86 3d
       0.0980326 0.0036905752 0.07573819 0.065817825
000040 2f db 7b bd 5e 9d 2b bd 08 bb 0c 3d 78 03 aa 3d
       -0.061488327 -0.041898124 0.034358054 0.08301443
000050 24 0e 78 bb 94 52 b2 bd dc 81 ce 3d e2 b0 94 3d
       -0.0037850225 -0.08707157 0.100833625 0.072603
000060 b6 79 c0 3a 4e df 2a bd 70 ae 2f bd ab 33 6c bd
       0.001468471 -0.041716866 -0.042890966 -0.057666462
000070 8b dc 24 3d c7 5c a7 bc 34 7d b8 3d 81 38 e9 bc
       0.04024939 -0.020429982 0.090082556 -0.028469326
000080 67 b4 06 3d cd 4a 4f 3d 90 2c 5a 3d bd 2d 77 3c
       0.03288689 0.050608445 0.053265154 0.015086588
000090 39 56 26 3c f1 87 bd bd 23 cc 2a bd 75 0e a7 3d
       0.010152393 -0.092544444 -0.041698586 0.08157054
0000a0 b8 02 20 3d 22 d9 7e bd ef 7b b1 3d 49 dc 9e bd
       0.039065093 -0.062218793 0.086662166 -0.0775686
0000b0 0b 7a 11 3d a2 f9 ca 3c ca bd 81 3c 1f 39 39 3d
       0.03551678 0.024777237 0.015837569 0.04522049
0000c0 4c 8f b5 3d df a1 d7 3c 7f db af 3b ac 0a 6d 3d
       0.08865222 0.026322303 0.005366742 0.057871506
0000d0 4d 86 c6 bd 6b f7 49 3c e3 76 81 3c 0a 5c 55 b9
       -0.096935846 0.012327055 0.01580376 -0.0002034755
0000e0 ea 8c 06 bd 8a c1 31 bd 91 53 72 bd 51 a2 69 bd
       -0.03284923 -0.043397464 -0.059161726 -0.057039563
0000f0 51 e8 a2 3d 03 6b 8b bc 2a cf 93 3d bd 79 ad bd
       0.07954467 -0.0170188 0.07217248 -0.08470485
000100 f8 b3 60 3d a3 c0 b7 3d 20 ef bb 3c 28 80 28 3d
       0.05485913 0.089722894 0.022941172 0.041137844
000110 38 70 9f bd c1 dd a1 bc 92 0f de bc 3b 36 cb bd
       -0.07785076 -0.01975906 -0.027107034 -0.09922453
000120 c4 ab b5 bd de ec 12 bd e2 0d 31 bd 36 bf ad bd
       -0.08870652 -0.035870425 -0.04322613 -0.08483736
000130 e4 92 a8 3d 38 10 91 3a 0c ec 91 bd 3f b4 b4 3a
       0.08231142 0.0011067456 -0.071251005 0.0013786628
000140 f3 36 2d bd d1 ad a9 bd 56 d2 7a 3d 58 6e 4d bd
       -0.04228873 -0.08285106 0.06123575 -0.05015406
000150 20 77 83 3d f9 b4 93 3d d6 a8 2d bb 65 1d 27 bd
       0.06419206 0.07212252 -0.002649834 -0.040799517
000160 bf 87 8e 3d c3 3c 63 bd 3f 2f 04 3d 08 48 60 bb
       0.06959485 -0.05547787 0.03227162 -0.0034222621
000170 f0 b2 32 bc 73 a2 c0 bd ac 27 8f bd 1a d5 9c 3d
       -0.01090692 -0.09405985 -0.06989989 0.076578334
000180 d0 ef ae bd ad 70 50 bd 87 9c b2 3d 03 fd d6 3c
       -0.08541834 -0.050888706 0.087212615 0.026243692
000190 67 4d 95 bd 1e c0 b9 3d 32 24 bc bd 4a d7 b2 3d
       -0.07290154 0.090698466 -0.09186591 0.087324694
0001a0 fa 8e 6d bd d7 13 5d 3c 06 e8 c3 3d 26 8b 65 3d
       -0.05799768 0.0134935 0.09565739 0.056040905
0001b0 b1 b0 28 bd 1c 8a 97 bc fe f4 3e 3d 27 c4 a1 bd
       -0.04118413 -0.018498473 0.04662036 -0.07898741
0001c0 a8 bb 81 bd de 57 02 3d 49 f8 89 3d f1 c6 b4 3c
       -0.06334621 0.031822078 0.0673681 0.022067519
0001d0 90 ea 9b bd c2 56 81 bd 6f c9 08 3d 6b 6e db 3d
       -0.076130986 -0.06315376 0.033395227 0.1071442
0001e0 ab 5f b9 bc d2 14 a6 3c a1 86 87 ba 3f ff ac 3d
       -0.022628626 0.0202736 -0.0010339805 0.08447122
0001f0 a1 33 c1 3d 43 c3 8b bc c0 90 7b bd fc b5 c8 bc
       0.094336756 -0.017060881 -0.06141734 -0.02450084
000200 80 5b 78 3c 93 3c d1 3d b6 f6 28 3d 85 6b b2 bd
       0.015158534 0.10216632 0.041250907 -0.08711914
000210 89 5a c0 bc af 1f 34 bd 42 35 ca bd 68 5f f1 3c
       -0.02348067 -0.04397553 -0.09873439 0.029464439
000220 ab bf 4f 3d fe 15 e7 3c f8 43 53 3d 10 a6 90 3c
       0.0507199 0.028208729 0.051578492 0.01765731
000230 af 66 c5 3c d9 81 87 3d 15 72 3c bd 7b 5e 06 3d
       0.024096815 0.06616563 -0.046007235 0.032804947
000240 23 16 8b bd 88 42 70 3c ad b9 73 bd 56 53 a0 3d
       -0.067913316 0.0146643 -0.059503246 0.07828395
000250 1f 28 28 bd 87 ae 94 3d 1f 66 4e 3c a3 35 bf bd
       -0.041053887 0.07259851 0.01259759 -0.09336402
000260 1b fb b9 bd d0 e2 75 3d b3 bf aa bc 2f 10 c6 bc
       -0.09081098 0.06003076 -0.020843362 -0.024177639
000270 b9 9d 40 3d fd a0 06 bd 46 33 88 3c 3b 39 88 bb
       0.047025416 -0.032868374 0.016626012 -0.004157213
000280 76 f3 9e 3d 66 e3 91 3d 3d 89 e7 bc 8f 12 d3 bc
       0.0776128 0.07123451 -0.028263682 -0.025765685
000290 42 a4 0a 3d 9e 8f 63 3d 17 df b8 bd 2d c9 87 bd
       0.033848055 0.055556886 -0.09026926 -0.06630168
0002a0 62 d3 5c 3d c2 62 a6 3d 09 8b 8b 3d 40 b4 a3 bd
       0.053912528 0.08124305 0.06813628 -0.07993364
0002b0 aa 41 7c bd f3 09 ec 39 0e 22 c5 3d 07 a2 69 bd
       -0.06158606 0.0004502084 0.09625636 -0.057039287
0002c0 92 e4 2c 3d b2 7a 9d bd ab 72 90 bd 00 0a 3c bd
       0.04221017 -0.07689418 -0.07053121 -0.045907974
0002d0 f8 54 9f bc 58 00 62 bd 99 b9 dc 3c 48 d1 a7 bc
       -0.019449696 -0.05517611 0.026943969 -0.020485535
0002e0 9a c8 da 3d ff 99 fa bc a7 cb 57 bd 02 87 d9 bc
       0.10682793 -0.03059101 -0.052684452 -0.026553635
0002f0 38 1a 47 3d 2a 30 6c 3d 85 29 9b bd b9 df a2 bd
       0.04860899 0.05766312 -0.075762786 -0.07952828
000300 cd 32 5d 3d 09 8c a3 3d 7f 48 31 bc b3 2a 65 3d
       0.054003526 0.07985694 -0.010820507 0.055948924
000310 b6 5d 40 bd 86 3d 45 3b b1 90 bb 3d 6c 1c d3 3c
       -0.04696437 0.0030096485 0.09158457 0.025770389
000320 64 54 9b 3c d6 39 98 bc ae 58 b1 bd ef 38 2f 3c
       0.018961139 -0.018582266 -0.086594924 0.010694726
000330 52 10 61 3d 29 d9 7a 3d 50 14 f8 3c 7d 5c 6a 3d
       0.054947205 0.061242256 0.030283123 0.05721711
000340 47 05 59 bd 26 86 22 bd 3d 85 7b 3d e9 bf 5c bc
       -0.05298355 -0.039678715 0.061406363 -0.013473489
000350 3d d3 dc 3d 96 cd fe bc 2d bd 25 3d 17 8d 96 3d
       0.10782478 -0.03110389 0.040463615 0.073511295
000360 fe 4f 9f bd 85 14 b5 3c 14 c8 1d bd d2 a9 c6 3d
       -0.07778929 0.022104511 -0.038520887 0.097003594
000370 ef e5 70 3d a7 ae a2 bd 20 e6 72 3d 02 7c 59 3d
       0.05881303 -0.079434685 0.059301496 0.05309678
000380 08 c1 bf 3d d3 a7 6e 3d fe 61 89 3a 64 f1 09 3c
       0.0936299 0.05826552 0.0010481474 0.008419368
000390 90 23 5c 3d 75 33 f8 bc 68 c7 be bd de 6e a8 3d
       0.053744853 -0.030297974 -0.093153775 0.08224271
0003a0 0b 8a bf bc e6 bb ef 3a fb 54 8d bc 77 8d 96 3d
       -0.023381254 0.0018290251 -0.017252436 0.07351201
0003b0 44 0b 55 bd 37 26 c2 3c bf a4 ad bd 1b 8e 2e 3d
       -0.052012697 0.023699863 -0.084786884 0.04261599
0003c0 1a 18 16 bd 90 77 fa 3c 94 3c 76 3d 06 53 ae 3d
       -0.03664408 0.03057459 0.060116366 0.08511929
0003d0 53 e2 09 bd 8e cf 8f bd 9e c8 82 bd 0f 4c 95 3d
       -0.033663105 -0.0702201 -0.06385921 0.07289898
0003e0 95 8a 9e bd be 25 b9 bd 2a 58 7b bc ec 91 46 3d
       -0.07741276 -0.09040402 -0.015340844 0.048479006
0003f0 ae 8c 36 bc ab 50 38 bc 78 d1 9b 3d 27 58 3c bd
       -0.011141939 -0.0112497015 0.07608312 -0.045982506

LinearLayer2.bias f4 [50]
000000 a2 b5 c4 3d 5b 1d 90 3d 32 00 91 3c e5 17 5a 3b
       0.09604956 0.07036849 0.017700288 0.0033278402
000010 c3 3f 3b bc 79 c0 15 3b 31 60 a6 3d e4 84 92 3d
       -0.011428776 0.0022850318 0.08123816 0.07154253
000020 dc 14 2c bd 03 e5 3e bc 71 32 24 bd 4d af 1c bd
       -0.04201208 -0.01165128 -0.040087167 -0.038253117
000030 23 b3 28 3d a4 cf b6 bd a9 dc a0 3d 3f 65 82 bd
       0.041186463 -0.08926323 0.078545876 -0.063669674
000040 17 d8 90 bd d7 a1 41 3d 50 fb 98 bd b1 b5 40 3d
       -0.07072466 0.047273483 -0.07469809 0.047048274
000050 0a 62 b8 3d 50 a2 fe bc ff 9f 9a 3d b7 c7 97 3d
       0.090030745 -0.031083256 0.07550048 0.074111395
000060 78 0f 96 3d 98 4c 87 3d ad 01 32 3d 4e d3 06 3d
       0.07327169 0.06606406 0.04345863 0.03291636
000070 62 f2 c3 36 f1 77 4d 3d f2 53 95 bd 92 05 72 3c
       5.83967e-06 0.050163213 -0.07291402 0.014771836
000080 25 99 b4 3d 6a 70 a1 bd 6d 1d 46 3d ce 7f 22 bd
       0.088182725 -0.078827694 0.048367906 -0.039672665
000090 29 2a bf bd 7c e3 96 3b 03 03 ef bc 19 9d 82 3d
       -0.09334213 0.004604755 -0.02917624 0.0637762
0000a0 72 b0 a0 3d 3e f9 3c 3d 36 47 e9 bc ab 22 f4 3c
       0.07846154 0.046136133 -0.028476339 0.029801687
0000b0 50 37 95 bd 70 5a 8a 3d 5e 29 c6 3d 36 e6 ae bc
       -0.07285941 0.06755531 0.09675859 -0.021350008
0000c0 e6 c1 08 3d 44 b7 2a bd
       0.03338804 -0.041678682

BN2.weight f4 [50]
000000 56 d5 80 3f 53 88 7f 3f fd 4e 85 3f df 5b 82 3f
       1.0065105 0.9981739 1.041473 1.0184287
000010 c5 13 78 3f e3 21 82 3f e4 f3 7c 3f f3 fa 7f 3f
       0.96905166 1.0166591 0.9880965 0.99992293
000020 3d aa 7d 3f 8b d7 7d 3f 0f 6a 7f 3f c1 9b 82 3f
       0.9908789 0.9915702 0.9977121 1.0203782
000030 10 7d 7b 3f 7e b0 7f 3f 36 9d 81 3f b2 7f 7e 3f
       0.98237705 0.9987868 1.0126102 0.994136
000040 60 2b 82 3f ac c5 7a 3f 11 eb 81 3f ba c4 7b 3f
       1.0169487 0.97957873 1.0149862 0.98347056
000050 4c 6c 84 3f a7 27 82 3f c1 20 83 3f 61 f4 7c 3f
       1.034555 1.0168351 1.0244371 0.9881039
000060 e5 e7 81 3f c3 e8 81 3f d4 a7 7a 3f a8 43 79 3f
       1.0148894 1.0149158 0.97912335 0.9736886
000070 75 aa 7c 3f 34 f9 78 3f 03 c2 7f 3f a8 25 80 3f
       0.98697597 0.97255254 0.99905413 1.0011492
000080 91 c7 84 3f 0f 1c 7d 3f 51 da 7f 3f ee ba 7f 3f
       1.0373403 0.9887094 0.999425 0.9989461
000090 0f 4a 82 3f 2a 40 83 3f 5f 19 7e 3f 96 28 7e 3f
       1.0178851 1.0253956 0.99257463 0.9928068
0000a0 29 ef 80 3f 07 77 83 3f 94 65 80 3f ff 61 80 3f
       1.0072986 1.0270699 1.0030999 1.0029906
0000b0 ea 8c 7f 3f cf 91 7c 3f 5f 41 7d 3f 8c 4b 7b 3f
       0.9982439 0.98659986 0.98927873 0.9816215
0000c0 d1 7c 81 3f e2 da 7a 3f
       1.0116216 0.9799024

BN2.bias f4 [50]
000000 4d 37 a2 bb 1d 41 85 3c 8e c0 0b 3d b4 ef da 3c
       -0.00495044 0.0162664 0.03411918 0.026725627
000010 f0 91 2e 39 de 80 5d 3c d7 a1 b1 bb 11 70 1b 3c
       0.00016648299 0.013519494 -0.005420904 0.009487168
000020 00 03 20 3c 75 f9 cd bb 09 88 70 ba bf 44 f4 3c
       0.00976634 -0.006285841 -0.0009175544 0.029817937
000030 d9 71 a4 bc 27 7b 3a bc a3 4b d9 3c 28 cf 8e 39
       -0.020073818 -0.011381901 0.026525324 0.00027238694
000040 bd 01 87 3c 2b 34 a2 b9 7e 2f a5 bb a7 d1 e3 3a
       0.016480321 -0.00030937916 -0.005041062 0.0017381207
000050 a1 37 e2 3c 97 e2 03 3c 7b a1 66 bc 5b 19 b6 bc
       0.027614417 0.008049629 -0.014076586 -0.022228887
000060 96 9f 6d 3c 7d 36 85 bb 19 99 6a bb 1a a1 65 3c
       0.01450338 -0.0040653334 -0.003579682 0.01401546
000070 b1 a5 b5 ba 1b d1 d1 bb 5a a2 cb 3a e4 8b 6d 3b
       -0.0013858584 -0.006403101 0.0015536055 0.0036246711
000080 6d 3b 5f 3d d9 69 b0 bb 68 70 e3 3b 71 e9 e9 3b
       0.054500032 -0.005383712 0.00694089 0.007138424
000090 0d 9a 32 3c d4 b2 64 3c b8 18 48 bb 5a 2c dc bb
       0.010900986 0.013958652 -0.0030532312 -0.0067191543
0000a0 62 3d 93 3b 9f 04 28 3c 13 01 6d 3c 3c 4c 4b 3c
       0.0044934014 0.010255008 0.014465588 0.012408312
0000b0 1c e7 79 3c 83 72 ba b9 d0 e2 85 bb f4 60 b0 3b
       0.015252855 -0.00035562002 -0.004085876 0.0053826515
0000c0 2f c8 72 3c 5c 7a 36 bb
       0.014818235 -0.0027843928

BN2.running_mean f4 [50]
000000 c4 44 a3 3d a0 64 91 3d e0 56 5b 3d bc 4d 2d bd
       0.079721004 0.07099271 0.053549647 -0.04231046
000010 f3 79 6f 3d b1 dd 83 3d 78 bd d2 3d 99 5b 5a 3d
       0.05846591 0.06438769 0.102900445 0.05331001
000020 e3 7d 0f bd ac ec 49 bd db 71 4c be e2 0d 30 3c
       -0.035032164 -0.049297974 -0.19965307 0.010745497
000030 6a 05 22 3d af c7 f4 bd 9d 70 90 3d 86 9c 8f bd
       0.039555945 -0.11952149 0.07052729 -0.07012276
000040 bc eb 2a bd 02 0d 94 bd 13 1a ee bc 3f 32 4a 3d
       -0.04172872 -0.072290435 -0.029065168 0.049364325
000050 9e 5a 72 3d 2c 0e 74 bd 02 c2 eb 3d 5e 2d 2b 3d
       0.05916845 -0.059583828 0.115116134 0.041791312
000060 9b e8 15 bd 37 74 da 3d 18 72 87 3d 9e 9e 50 3c
       -0.036598783 0.106666975 0.066135585 0.01273313
000070 ea 0a 0d 3d cf 78 84 3d 41 c1 8f bd fa c1 82 3d
       0.034434237 0.06468355 -0.07019282 0.06384654
000080 ca 68 05 3e 28 1e ab bd c3 2d 70 3d 6c a5 11 bd
       0.13028255 -0.08355361 0.05863739 -0.03555815
000090 05 32 db bc fe 31 01 3c fc a5 4c bd 0b 86 f9 3c
       -0.02675725 0.007885454 -0.049962983 0.030459424
0000a0 21 fb 8a 3d 11 2e bf 3d d6 e5 a4 bd 01 8d 84 bd
       0.0678618 0.09334958 -0.0805165 -0.06472207
0000b0 30 46 d2 bd 0b 6c 06 ba c0 2a 64 3e 17 32 9e bd
       -0.102672935 -0.0005127794 0.22281933 -0.07724398
0000c0 7d ba 0e 3d 6d dd 72 bd
       0.034845818 -0.0592932

BN2.running_var f4 [50]
000000 29 df 50 3e 72 25 e8 3e ca 25 67 3e ba f5 7b 3e
       0.20397629 0.45341069 0.22573009 0.24605456
000010 91 6f 4b 3e e0 6a b1 3e 9d 8a 80 3e b0 a4 45 3e
       0.19866778 0.34651852 0.25105754 0.19301105
000020 dd 4f 1c 3e ad 39 90 3e 78 a8 e3 3e 53 7a 5a 3e
       0.1526484 0.28169003 0.4446447 0.21335725
000030 0a 52 48 3e 88 1f 8f 3e 9e 91 9b 3e a2 65 5e 3e
       0.19562545 0.27953744 0.30384535 0.21718457
000040 12 e5 26 3e 5b f5 a6 3e 8f 58 06 3f 22 78 10 3e
       0.16298321 0.32609066 0.5247888 0.14108327
000050 a1 b7 44 3e c2 1e 8f 3e a7 c3 78 3e 18 6f 69 3e
       0.19210674 0.27953154 0.24293385 0.22796285
000060 75 6e 98 3e c6 d2 12 3f 95 0d dc 3e 75 7b 01 3f
       0.29771772 0.57352865 0.42979112 0.50579005
000070 1b 8d a8 3e 0b ec 1e 3e af ae c4 3e 2c 93 46 3e
       0.32920155 0.15519731 0.38414523 0.19392079
000080 a5 61 ea 3e 01 7d 32 3e 89 c0 5b 3e ba d0 cd 3e
       0.45777622 0.17430498 0.21460165 0.40198308
000090 cb a6 71 3e 55 9a a5 3e 16 3b c5 3e cb 56 65 3e
       0.23598783 0.32344308 0.38521641 0.2239639
0000a0 b2 9d 82 3e bd e6 d6 3e 20 e4 3a 3e 12 fa bd 3e
       0.25510937 0.41972914 0.18251085 0.3710485
0000b0 bc 9c a0 3e 54 2e 87 3e 6f d3 02 3f 00 d1 fd 3e
       0.3136958 0.26402533 0.5110387 0.49573517
0000c0 a9 4a 7d 3e a2 cb 4c 3e
       0.24735512 0.19999555

LinearLayer3.weight f4 [33, 50]
000000 42 ca ef bd 02 07 24 bd e5 83 e0 3d b0 1b 1c bd
       -0.117084995 -0.040045746 0.10962657 -0.038112342
000010 f0 7d cf 3c 17 57 0c bd 80 38 78 bc 24 74 a0 3b
       0.025328606 -0.034262743 -0.015150189 0.0048966575
000020 95 00 93 3d 42 0a 9a 3d 13 0b d5 bd 46 a5 8f 3d
       0.071778454 0.07521488 -0.10402503 0.07013945
000030 ca f9 ae bd da 46 36 3c 71 ce 08 be e6 ab 0a bd
       -0.08543737 0.011125291 -0.13360001 -0.03385534
000040 48 2d 0d 3e ee 76 47 3d ff 1f 87 3c af 02 8f 3d
       0.13786805 0.048697405 0.01649475 0.06982934
000050 c7 6a 30 bd 92 ab 34 3d b7 fe 18 bd d9 dd 7a bd
       -0.04307058 0.044108935 -0.03735229 -0.061246727
000060 0f 13 5b 3c 17 f9 16 bd 7b a2 81 3d dd e4 0d be
       0.013371243 -0.036858644 0.06329819 -0.13856836
000070 5f 05 2d be f0 a8 07 bd e9 87 f4 bd be 7c 8d bd
       -0.1689658 -0.033120096 -0.11939985 -0.06908558
000080 03 6b 0e be 15 78 16 be 50 c3 87 bc e5 82 ec bd
       -0.13908009 -0.14694245 -0.016572624 -0.11548404
000090 38 de ed bd 32 f0 48 3d ca be 06 3e ed 35 92 bd
       -0.116146505 0.049057193 0.13158718 -0.07139192
0000a0 8b f4 96 bb ed 5a 31 3d 20 8e 03 3e b1 90 e9 3d
       -0.0046067885 0.043299604 0.12847185 0.11404551
0000b0 4e 40 50 3d 4f 94 db 3d bb ee da 3d 41 02 59 3c
       0.050842576 0.10721647 0.106900655 0.013245166
0000c0 7b 47 44 bd 3e e6 84 bd 4f ec 95 3d d1 c6 fc bd
       -0.04791973 -0.06489228 0.07320463 -0.12342609
0000d0 36 49 d5 bd 0e 4a f4 3b 3e 12 d2 bd 4f 85 14 be
       -0.104143545 0.007455117 -0.10257386 -0.14503978
0000e0 68 e3 b3 bd b4 fe d3 bd 89 05 ae 3d 30 51 32 3c
       -0.08783609 -0.10351315 0.084971495 0.010883614
0000f0 1b f3 37 bd 21 6b e0 3c a5 b5 f5 3d 62 83 70 3c
       -0.044909578 0.027394833 0.119975366 0.014679762
000100 0b 73 4b 3d f8 1f 00 be c8 c2 ef bd 5a aa d1 3b
       0.04967026 -0.12512195 -0.117070735 0.0063984813
000110 b3 c0 cc bc fe 0a 0e 3d f5 fc 7d 3d 88 32 ad bd
       -0.02499423 0.03467845 0.062008817 -0.08456904
000120 84 ba e3 bd 5e e9 07 be e2 ee 19 bb 3c b8 d0 bc
       -0.111195594 -0.13272616 -0.0023488333 -0.025478475
000130 08 84 af 3c 3a 62 11 3e f1 dc 4d bd c7 7c 1e be
       0.021425262 0.14197627 -0.050259534 -0.15477286
000140 73 f9 b0 3d 74 30 85 3d fa 5a f6 3c 18 7a c1 3c
       0.08641329 0.06503382 0.030072678 0.02361779
000150 70 3f d8 3d 74 2e 7f bd ea 17 9a 3d a8 54 3c bd
       0.10558975 -0.06230016 0.075240925 -0.045979172
000160 e9 6e 96 3d c4 ff d5 3c e2 25 7f 3c 00 a1 ac bc
       0.07345373 0.026122935 0.015572997 -0.021072865
000170 15 57 88 bd 1e dd 01 bd 75 89 d9 3d 82 fa 22 3c
       -0.066572346 -0.031705014 0.10621921 0.009947421
000180 dd b8 61 bc cb 94 c8 3c c4 cf 86 3d e4 73 f3 3c
       -0.013776985 0.024485013 0.06582597 0.029718347
000190 13 dc 18 bd cc bd 2f 3d c8 3f 63 bd 09 09 db 3d
       -0.037319254 0.042905614 -0.05548075 0.10695083
0001a0 86 81 91 3d 9e 64 8d bd 5c 84 0c bd fa a9 b0 bc
       0.07104783 -0.06903957 -0.034305915 -0.021565426
0001b0 4f a6 aa bd 75 46 02 be 29 a6 0b bb 21 aa c4 3d
       -0.08332502 -0.1272219 -0.0021308756 0.09602762
0001c0 84 6b a9 bc 73 28 c2 3d fe 2f ec 3d 97 63 e1 3c
       -0.02068115 0.09480371 0.11532591 0.027513308
0001d0 4a 13 e0 3d 15 bd 18 bd 36 5b 89 ba 15 72 a0 bd
       0.10941179 -0.037289698 -0.0010479453 -0.078342594
0001e0 6c e2 c2 bd f3 55 5a bc 0d 77 f2 bd 34 10 bd bd
       -0.09515843 -0.013326156 -0.118391134 -0.09231606
0001f0 a7 9e e3 bd b9 fd 9e bd 27 f0 a3 bd 95 26 0a 3d
       -0.11114245 -0.077632375 -0.0800479 0.0337282
000200 f4 cd d6 3d a8 5c 11 3c 8b 79 b6 3d f7 f7 dc 3d
       0.10488501 0.008872189 0.08909901 0.10789483
000210 3c 44 06 be 6f 85 9f 3d 52 87 5a ba e0 c8 6e 3d
       -0.13111967 0.07789122 -0.00083362043 0.058297038
000220 57 c7 c4 3d f3 ff 3c bd a0 0c f9 3c b1 00 4c bd
       0.096083336 -0.04614253 0.030401528 -0.049805347
000230 37 d4 7d bd ce 2c 16 be 2e 3d d5 3d 11 00 45 bd
       -0.061969962 -0.14665529 0.1041206 -0.048095766
000240 15 ff ba bc 5e c5 8d bd 92 11 9f bd 19 46 fb 3d
       -0.02282671 -0.069224104 -0.07767023 0.122692294
000250 0c 00 90 bd c1 9f 17 3e 52 0e ce bd be 64 10 3e
       -0.07031259 0.14807035 -0.10061325 0.1410093
000260 c6 b2 f6 3c 84 77 d9 3d c4 f4 a8 bd 64 c9 71 bd
       0.030114543 0.10618499 -0.0824981 -0.05902995
000270 20 37 1d bd 50 25 17 bc 50 ed ac bd 65 8e d6 bd
       -0.03838265 -0.009225205 -0.08443701 -0.10476378
000280 f1 33 fb bd 5a 14 d4 bc cc 50 8b 3d 16 87 cb bd
       -0.122657664 -0.02588861 0.0680252 -0.09937875
000290 d0 65 15 be 16 85 62 bc 8c e9 45 bd 21 d6 9a 3c
       -0.1458962 -0.0138256755 -0.04831843 0.018900933
0002a0 70 12 e8 3c 22 ac 0d bb cd 68 56 3c dc ff 36 3d
       0.028329104 -0.0021617492 0.01308651 0.0446776
0002b0 88 3d dd 3d fa d2 a7 3d 79 46 79 bd bf 35 9b bd
       0.10802752 0.081945375 -0.060858224 -0.07578611
0002c0 d5 52 f7 bd d6 ba bb 3d 09 31 f0 3d 02 19 c8 bc
       -0.12076346 0.091664955 0.11728103 -0.024425987
0002d0 8a d5 f8 bc e8 43 d8 bd bc 4e f9 3d c9 80 b6 3d
       -0.03037526 -0.10559827 0.121732205 0.089112826
0002e0 eb 26 1e be 34 8f cc 3d c5 24 2c 3d eb 23 78 bd
       -0.15444534 0.09988251 0.042027254 -0.06058113
0002f0 65 dc b3 bc 17 b2 a9 3d e3 53 04 bd 31 47 ec 3c
       -0.021955678 0.08285921 -0.032306563 0.02884254
000300 1d 44 8b bc 96 c0 0e 3e 87 26 b1 3d 90 d1 0e 3d
       -0.017000252 0.13940653 0.08649927 0.034867823
000310 24 9c c3 3d 96 6a 84 3d 36 4e a7 3d c5 ce 1d bd
       0.09551266 0.06465642 0.081692144 -0.03852727
000320 aa 6b 8b bd 4e 09 9f 3b 6c f5 9b bc 06 f7 b3 bd
       -0.06807645 0.004853404 -0.019037925 -0.0878735
000330 4c b2 92 3d c3 cd b8 bd 23 b8 d6 3b 23 6f 50 bd
       0.07162914 -0.09023621 0.0065527125 -0.05088724
000340 07 0b 02 3e 47 40 b7 3d 8c e1 e1 bd 2d 5f 10 3e
       0.12699519 0.08947807 -0.11029348 0.14098807
000350 05 fc ec bc 81 93 f6 bd 7a f2 65 3d fd 16 9f 3d
       -0.028928766 -0.12039853 0.056139447 0.077680565
000360 8e a2 71 3d 6f cf 98 bb f2 28 0a 3c 87 3e 36 bd
       0.058992915 -0.0046634 0.008432614 -0.044493224
000370 1a e7 e3 bd da 43 21 bd e1 56 93 bd 5c d1 72 bd
       -0.111280635 -0.03937135 -0.07194305 -0.059281692
000380 aa 9b 7a 3d b8 cd 13 bd 74 14 c0 bd e9 16 8d bd
       0.06118361 -0.03608486 -0.09378901 -0.068891354
000390 2b 3a d0 3d 7d f5 d0 bd e5 f4 f7 3d e3 34 02 3e
       0.10167345 -0.10203073 0.12107257 0.12715487
0003a0 f7 0c 99 bd 25 3e 9f 3d a3 dc 6a bd b3 79 ca bd
       -0.07473176 0.07775525 -0.05733932 -0.098864935
0003b0 df 62 d6 3d 47 f5 15 be 22 ea 09 3e 08 c8 bc 3d
       0.10468077 -0.14644347 0.13468221 0.092178404
0003c0 16 e9 9c bd e2 68 ab bb ba c0 38 3d 33 c8 be 3d
       -0.07661645 -0.005231009 0.045105673 0.09315529
0003d0 e7 30 2a 3c 7f 55 85 bd 4c f2 e6 bd a7 09 4d 3d
       0.010387636 -0.06510448 -0.11276683 0.050058033
0003e0 d0 12 8c 3d a8 0b 25 bd ca ac 09 be 48 41 e9 3d
       0.06839526 -0.04029432 -0.1344482 0.113894045
0003f0 7c 75 8d 3d 06 8a e6 bc 4b c0 b6 3d d8 c4 b7 ba
       0.06907174 -0.028141987 0.08923396 -0.0014020456

LinearLayer3.bias f4 [33]
000000 c5 d4 58 bc d6 17 89 bc 4d cb 0c 3d 58 02 5a 3d
       -0.013234322 -0.016734999 0.03437357 0.05322489
000010 91 b3 83 bd 0c cb 09 3e 4b 76 f0 bc 5a 9a 8d bc
       -0.06430734 0.13456362 -0.029353281 -0.017285515
000020 1f a1 d0 bd 71 d6 04 bd 03 f5 76 bd 64 02 cf bd
       -0.101869814 -0.03243107 -0.060292255 -0.10107878
000030 3b ba e9 bc e7 5a e3 3c cf a9 f3 bc 91 bb 6e bd
       -0.028531184 0.027753307 -0.029744057 -0.058284346
000040 f3 91 0a 3e bf ce b4 bd be 9b fb 3d a8 07 08 bd
       0.13532238 -0.08828496 0.12285565 -0.033210427
000050 c2 eb a8 3d be dd b2 bd a4 b0 fc 3d 05 64 ae bc
       0.08248092 -0.087337 0.12338379 -0.021287927
000060 63 6a c0 3c a5 38 af 3d dc ab 10 be a2 7e 0b bd
       0.02348823 0.08555726 -0.14128059 -0.034056313
000070 01 ef d5 3c bf bb 54 3d 94 2e 7f 3d 0d 6b b9 bd
       0.026114943 0.05193686 0.06230028 -0.090536214
000080 a1 5f 15 bc
       -0.009117038

BN3.weight f4 [33]
000000 eb 6e 7b 3f 57 a6 7e 3f ff e5 7b 3f d0 fd 7a 3f
       0.9821612 0.99472564 0.9839782 0.9804354
000010 a1 b4 7b 3f 55 5d 76 3f 22 98 80 3f f8 7f 78 3f
       0.9832249 0.96236163 1.0046427 0.97070265
000020 2f 56 7f 3f 84 b8 78 3f 65 7d 7c 3f e0 5b 7d 3f
       0.9974088 0.9715655 0.98628837 0.98968315
000030 32 08 7a 3f fb b1 80 3f 63 3e 77 3f 31 1a 73 3f
       0.97668755 1.0054315 0.9657957 0.9496184
000040 2c bb 79 3f e1 f8 73 3f 9e 97 81 3f db c6 78 3f
       0.97551227 0.95301634 1.0124395 0.9717843
000050 ff 62 76 3f 63 ad 7a 3f 75 c9 74 3f aa 0c 79 3f
       0.96244806 0.9792082 0.956199 0.9728495
000060 ee 01 77 3f 57 dd 75 3f 67 24 79 3f 77 76 79 3f
       0.9648732 0.9604086 0.9732117 0.9744639
000070 c5 db 7b 3f 6d 3f 7a 3f cd 07 77 3f d5 be 78 3f
       0.98382217 0.9775303 0.9649628 0.97166187
000080 e5 f1 79 3f
       0.97634727

BN3.bias f4 [33]
000000 ff f5 fa bc a5 bd fa bc 7e 84 f9 bc 81 30 05 3d
       -0.030634878 -0.030608008 -0.030458685 0.03251696
000010 84 4a 0b 3d aa 52 03 bd 6c b7 fc 3c c4 0d 01 bd
       0.03400661 -0.032061256 0.030849181 -0.03150727
000020 13 6b e4 bc d1 19 03 3d 62 4b 06 bd 8f 9b fe 3c
       -0.027883088 0.032007042 -0.032786734 0.031080035
000030 2e 12 10 3d bd 3f 10 3d 38 35 f4 bc c4 07 e8 bc
       0.035173588 0.035217036 -0.029810533 -0.028324015
000040 67 28 16 3d 0d 12 05 bd de d5 40 3d 9b 45 fe bc
       0.036659624 -0.032487918 0.04707896 -0.03103905
000050 46 f4 db bc 36 2a 06 3d 05 71 d6 3c d0 c1 06 3d
       -0.026849877 0.0327551 0.026176939 0.032899678
000060 20 04 e8 bc 98 65 01 bd b7 6b f0 bc 22 eb 13 3d
       -0.02832228 -0.031591028 -0.029348237 0.036112912
000070 27 a3 ed 3c 7e 20 14 bd 16 20 0f 3d 75 f5 f5 3c
       0.029008461 -0.0361638 0.03494271 0.03002427
000080 7d 94 0a 3d
       0.033833016

BN3.running_mean f4 [33]
000000 38 2e 21 bd 5b 2a 2b bd c3 b0 e7 3c 1d 36 2d 3d
       -0.03935072 -0.04178844 0.028282529 0.042287935
000010 01 89 2d bd 7d 51 e3 3d d0 6d 07 be 0b 52 bd 3b
       -0.042366985 0.11099527 -0.13225484 0.0057776025
000020 37 59 23 be bb 4b 0d bd 7b 49 22 bd 67 95 de bd
       -0.15952002 -0.03449605 -0.039620858 -0.1086834
000030 76 dd 8e 3d 2e 59 9a 3a 2e ba c4 bc e0 a6 61 bd
       0.06975834 0.0011775845 -0.024014559 -0.055090785
000040 e8 32 3a 3e e5 af 70 be f8 9f c7 3d f7 5b 47 bd
       0.18183482 -0.23504598 0.097473085 -0.04867169
000050 ae ab b3 3d 94 d5 15 bd 32 05 ca 3a f0 1c 25 bd
       0.0877298 -0.036580637 0.0015412925 -0.0403108
000060 6e 56 27 3d 83 d0 bb 3d d2 00 9f bd b0 99 03 be
       0.04085391 0.0917063 -0.07763828 -0.12851596
000070 01 25 68 bc ac 64 9b 3d a5 e5 37 3d e9 ab 3a be
       -0.014168979 0.07587561 0.04489674 -0.18229641
000080 80 4b 41 bc
       -0.011797786

BN3.running_var f4 [33]
000000 43 cc d6 3e d5 ec 8f 3e f8 d2 77 3e 0c 60 e6 3e
       0.41952714 0.28110376 0.24201572 0.44995153
000010 65 68 4b 3f 62 fa 18 3f 9c e0 64 3e 36 77 41 3f
       0.7945617 0.59757054 0.22351307 0.75572526
000020 1d 51 44 3e 61 19 7a 3e c9 54 3a 3f 15 ec e1 3d
       0.19171567 0.24423744 0.7278562 0.11031357
000030 45 f3 23 3f 37 72 c0 3e dd d5 a3 3e d9 56 57 3e
       0.64043075 0.3758714 0.31999102 0.21029224
000040 72 e5 28 3f d2 1b de 3e 98 b7 b5 3d b5 a5 20 3f
       0.65975106 0.433806 0.08872908 0.6275285
000050 8a ad 2c 3e 5d c0 81 3e 9a 79 fe 3e 3f b7 96 3e
       0.16863075 0.25342074 0.4970215 0.2943668
000060 b0 cb 09 3f 87 3a d8 3e dc 84 09 3f 17 ae 13 3f
       0.5382643 0.42232153 0.5371835 0.57687515
000070 e2 8d 0c 3f 8a b1 ca 3e 9b 41 91 3e cc 80 2b 3f
       0.54903996 0.39588577 0.28370366 0.66993403
000080 f0 15 7b 3e
       0.24520087

LinearLayer4.weight f4 [1, 33]
000000 93 e1 27 3d 33 b5 89 3d f6 6a ee 3c 7e db aa bd
       0.04098661 0.06724014 0.029103737 -0.08342646
000010 00 1f 0e be a1 ca f7 3d c1 15 ac bc 01 1a 0c 3e
       -0.13879013 0.12099195 -0.021006467 0.13681795
000020 fc bb 37 3c 71 d7 40 bd f3 63 c7 3c 7d 6a d9 bc
       0.011214253 -0.04708046 0.024339652 -0.026540035
000030 7c bd ec bd 20 3b 2d bd d7 3a 05 3d 9c 53 a4 3d
       -0.11559579 -0.042292714 0.032526817 0.0802376
000040 ea 55 de bd 75 e1 d3 3d da a1 12 bc 74 b7 03 3e
       -0.108562306 0.10345737 -0.008949721 0.1286295
000050 0d 2b 44 3d 9b d8 77 bd 4b 26 00 be 49 68 82 bd
       0.04789262 -0.060509305 -0.12514608 -0.06367547
000060 2b 71 d0 3d a5 fd ac 3d 24 d4 b2 3d 4b 70 a2 bd
       0.10177835 0.08446816 0.08731869 -0.079315744
000070 5c db 85 bd 85 64 5e 3d 4c 9c b9 bd 51 2f 07 be
       -0.0653598 0.05429508 -0.090630144 -0.13201644
000080 45 2c 7b bd
       -0.061321516
