trained_models_sagnik/dnn_model_mae.pt (torch, 230496 bytes, 19 tensors)

LinearLayer1.weight f4 [100, 484]
0	0x3cbed278	0.023293719
1	0xbd0e991b	-0.03481398
2	0xbd1620c1	-0.03665233
3	0x3d2d7e56	0.04235681
4	0xbd338ec0	-0.04383731
5	0xbd10c0b5	-0.03534003
6	0x3b98efec	0.004667273
7	0x3cfdba3d	0.030972594
8	0x3b4de9a4	0.0031419778
9	0x3c9fa811	0.01948932
10	0xbcb71abd	-0.022351617
11	0xbcef6a7f	-0.029225586
12	0x3bd534f7	0.006506558
13	0x3ce51fb6	0.027969223
14	0x3be32e16	0.006932984
15	0x3cd1a2db	0.02559035
16	0x3cf5bc0e	0.029996898
17	0xbb276456	-0.0025541983
18	0xbd22b689	-0.03972486
19	0xbd20d81a	-0.03926859
20	0xbc42442b	-0.011857073
21	0x3cce7091	0.02520016
22	0xbcf56507	-0.0299554
23	0x3b9fad56	0.004872958
24	0x3cda4d7a	0.026648272
25	0xbd2f3462	-0.042774566
26	0xbd3646a6	-0.04450097
27	0x3cc3b645	0.023890624
28	0x3d04f1d3	0.032457184
29	0x3c7b6278	0.015343301
30	0xbc8a458b	-0.016878864
31	0x3b10a438	0.0022070538
32	0x3cc8c410	0.024507552
33	0x3bc85814	0.0061140154
34	0xbca415c1	-0.020029904
35	0xbac2e92f	-0.001487052
36	0x3d04d245	0.03242709
37	0xbc505692	-0.0127159525
38	0xbd0081e4	-0.031373873
39	0x3b30eab4	0.0026995363
40	0xbc13fe08	-0.009032734
41	0x3d196be8	0.037456423
42	0xbd21a788	-0.03946641
43	0x3d28d6fb	0.041220646
44	0x3cb7d779	0.022441613
45	0xbccf0bbc	-0.02527415
46	0x3c19199d	0.009344486
47	0x3d2e7a1b	0.042596918
48	0xbd4639f7	-0.048395123
49	0xbd0e1102	-0.03468419
50	0xbd0ab14f	-0.0338605
51	0x3b8ac3a7	0.0042347494
52	0xb9d35aea	-0.00040312792
53	0xbb8c774a	-0.0042866813
54	0x3d23fb37	0.0400345
55	0xbcc3144b	-0.023813387
56	0xbca8e786	-0.020618211
57	0xbb172af5	-0.0023066376
58	0x3d19ad9d	0.037519086
59	0x3ca49b28	0.020093516
60	0xbcdedbb3	-0.02720437
61	0xbc6ada75	-0.014334311
62	0x3d2b4883	0.0418172
63	0xbcfe518c	-0.031044744
64	0xbd259fa5	-0.040435452
65	0xbd144ce4	-0.03620614
66	0xbb661ac6	-0.0035111173
67	0xbd142956	-0.036172234
68	0x3c4cf7f9	0.012510293
69	0xbc189df0	-0.009314999
70	0xbd320dd8	-0.043470234
71	0xbd19499c	-0.037423715
72	0xbca95614	-0.020670928
73	0xbc58ef76	-0.013240686
74	0xbccbfbe5	-0.024900386
75	0x3c5abbd5	0.013350447
76	0xbcb3f212	-0.021966014
77	0x3b279563	0.002557122
78	0xbd4d9e72	-0.050199933
79	0x3d02d989	0.03194574
80	0xbc9d3579	-0.019190537
81	0xbbe226cd	-0.006901598
82	0xbc04022d	-0.008057159
83	0xbd3b72b4	-0.045763686
84	0x3d20928b	0.039202254
85	0x3ccb498f	0.024815349
86	0x3ca42e5a	0.020041633
87	0xbcf931aa	-0.03041919
88	0x3c82ec6f	0.015981881
89	0xbc961ec2	-0.018325213
90	0x3cd3ab70	0.025838584
91	0xbd30e98e	-0.043191485
92	0xbd2e5713	-0.04256351
93	0xbcb7d18c	-0.022438787
94	0x3d359729	0.04433361
95	0xbd2da302	-0.042391784
96	0xbcf8bf55	-0.030364672
97	0x3c64479c	0.013933089
98	0xbc618d7d	-0.013766644
99	0xbd2eaec1	-0.042647127
100	0x3c37e4f5	0.011224021
101	0xbc29dd46	-0.010367697
102	0x3c509e3e	0.01273304
103	0xbd1cee5c	-0.038313255
104	0x3c8b6f44	0.017020829
105	0xbb568674	-0.003273395
106	0x3cbaaadc	0.02278655
107	0x3c9a0c23	0.018804615
108	0xb9aa1b03	-0.00032445052
109	0xbd05c2cd	-0.03265648
110	0x3c4f3e3f	0.012649118
111	0xbc56fbf4	-0.013121594
112	0x3c0085ec	0.007844429
113	0xbd4ca891	-0.049965445
114	0x3d0c0d68	0.034192473
115	0x3c6a41c3	0.014297905
116	0xbcd195ff	-0.025584219
117	0xbd2d0060	-0.042236686
118	0xbd2f4e57	-0.04279932
119	0xbd48a2fe	-0.048983566
120	0xbcd4139b	-0.025888255
121	0x3d31d2a0	0.04341376
122	0x3c98da48	0.018658772
123	0x3cbba28e	0.02290466
124	0xbcfa10a2	-0.03052551
125	0xbc9e8b28	-0.019353464
126	0x3d0c63f2	0.034275003
127	0xbd28976e	-0.04116004
128	0x3cb57000	0.022148132
129	0xbd4e79ed	-0.050409246
130	0xbcc24380	-0.023713827
131	0x3c769afb	0.015051599
132	0x3be9ea75	0.007138545
133	0xbd012468	-0.03152886
134	0x3c9471de	0.018120702
135	0x3b96d4be	0.0046029976
136	0xbc409d70	-0.011756286
137	0x3cef080f	0.029178647
138	0x3b21e8e9	0.0024705476
139	0xbbddb40d	-0.0067658485
140	0xbccf2958	-0.025288269
141	0xbc9989da	-0.01874249
142	0xbcd04633	-0.025424099
143	0xbd3bad07	-0.04581931
144	0xbc3c625c	-0.01149806
145	0x3cedc771	0.029025765
146	0xbd15c97e	-0.03656911
147	0xbd026ffc	-0.031845078
148	0x36f7b2fa	7.3820092e-06
149	0x3d1b02cc	0.037844464
150	0xbcea664a	-0.028613228
151	0x3cb3c17f	0.021942852
152	0x3cd33c3b	0.025785556
153	0x3c13ae28	0.00901369
154	0x3d04f2f0	0.032458246
155	0x3d11eb6d	0.03562491
156	0x3cb7506d	0.022377217
157	0x3cb5cf61	0.022193613
158	0xbca7d169	-0.020485597
159	0x3d520a8c	0.05127959
160	0xbcfef7dd	-0.03112405
161	0x3ba08b44	0.0048994143
162	0x3c8e2eee	0.017356362
163	0x3ce18125	0.027527401
164	0xbce32cec	-0.027731381
165	0xbc8bb5e8	-0.017054513
166	0x3c4c4d32	0.012469577
167	0x3cd2e34e	0.025743153
168	0xbbe77914	-0.007063994
169	0x3cbc1b70	0.022962302
170	0x3cb9e821	0.022693696
171	0xbd33d727	-0.043906357
172	0xbc8b49dc	-0.017002992
173	0x3d0c64f6	0.03427597
174	0x3d06299d	0.03275453
175	0x3c048836	0.008089116
176	0xbbc4f0f8	-0.006010171
177	0x3cfe4a8e	0.03104141
178	0x3d134dd9	0.035962913
179	0xbc58e96e	-0.013239248
180	0x3c9a9e27	0.018874241
181	0x3b59ed1b	0.0033252898
182	0xbcb00392	-0.021486077
183	0xbd04e764	-0.032447234
184	0x3c066659	0.0082031125
185	0xbd3316ec	-0.043723032
186	0x3cc4d40b	0.024026891
187	0x3d2bfec3	0.041991007
188	0x3c14b335	0.009075929
189	0xbd2918ee	-0.04128354
190	0x3d021e07	0.031766918
191	0xbd04ee4d	-0.032453824
192	0xbd407dbd	-0.046994913
193	0xbce3b468	-0.027795985
194	0x3c846378	0.016160712
195	0xbd27eb71	-0.04099602
196	0x3d33d1dc	0.04390131
197	0x3d4e05b3	0.050298404
198	0xbb827da4	-0.0039822627
199	0x3c7f286e	0.015573604
200	0xbce9e1b1	-0.02855
201	0xbd3f594d	-0.046716023
202	0x3cd755f8	0.02628611
203	0xbbac9aa0	-0.005267456
204	0xbc6ed856	-0.014577946
205	0x3cda9f84	0.026687391
206	0x3bbbff77	0.005737241
207	0xbd1774f9	-0.03697679
208	0xbd2d1a72	-0.04226155
209	0xbd1a361c	-0.03764926
210	0x3ca495af	0.020090906
211	0x3c0218e9	0.007940509
212	0x3d2a652c	0.04160039
213	0xbc0035cd	-0.007825327
214	0xbcb0ab8e	-0.021566179
215	0xbac1e9df	-0.001479443
216	0x3ce4cbef	0.027929274
217	0x3d296b78	0.041362256
218	0x3c7e1ee2	0.015510293
219	0x3d2d37bb	0.042289477
220	0xbc3cd9b2	-0.011526512
221	0xbd27255d	-0.040807117
222	0x3c469d6b	0.012122492
223	0xbcaf5d00	-0.02140665
224	0xbc79af42	-0.015239539
225	0xbcda6724	-0.02666051
226	0x3d1e7fec	0.038696215
227	0xbcabfab6	-0.020993572
228	0xbd25932c	-0.040423557
229	0xbd0935e3	-0.033498656
230	0x3d094eb2	0.033522315
231	0xbcd00edd	-0.025397712
232	0xbcd6838c	-0.026185773
233	0xbc91ddd5	-0.017805973
234	0x3cc7d07a	0.024391402
235	0x3c377cc5	0.011199181
236	0xbc989b9d	-0.01862889
237	0xbcf2911b	-0.029610207
238	0xbc0cad91	-0.008586303
239	0x3c31f01f	0.010860472
240	0xbca722f5	-0.020402411
241	0xba3c77d0	-0.00071894843
242	0xbcf7451f	-0.030184327
243	0xbbe3bd31	-0.0069500436
244	0x3d0fe96a	0.03513471
245	0x3cd5f689	0.026118534
246	0xbc8d841d	-0.01727491
247	0xb9e67b79	-0.00043961013
248	0xbce8fd29	-0.028441029
249	0xba904676	-0.0011007327
250	0x3c52ee18	0.012874149
251	0x3d0f9ec0	0.035063505
252	0xbc7d2ba3	-0.015452298
253	0xbcd97114	-0.026543178
254	0x3cd891f8	0.02643679
255	0xbca221cb	-0.019791504

LinearLayer1.bias f4 [100]
0	0x3d0a32d8	0.033739895
1	0x3c96bc0c	0.018400215
2	0x3c05039a	0.008118534
3	0xbcb08aa2	-0.02155048
4	0xbd15331e	-0.036425702
5	0xbcb1927c	-0.021676295
6	0x3b7246b7	0.003696842
7	0xbd2a54a1	-0.041584615
8	0xbd1cf652	-0.038320847
9	0x3d357eed	0.0443105
10	0xbcfefe7f	-0.031127213
11	0x3d14a88e	0.03629356
12	0x3a92708f	0.0011172461
13	0xbc250847	-0.010072774
14	0xbcb3e74c	-0.021960877
15	0x3ad8c0c4	0.0016536941
16	0x3d352f9c	0.044234857
17	0xbd30651c	-0.043065175
18	0xbc9c8bc6	-0.019109618
19	0xbcd44b52	-0.025914822
20	0x3d0305a5	0.031987805
21	0x3c58c733	0.013231087
22	0x3cceb683	0.025233513
23	0x3cb7af79	0.02242254
24	0xbc48a459	-0.012246215
25	0x3c9de5e1	0.019274654
26	0xbb8b3c07	-0.004249099
27	0x3b0d6850	0.0021577068
28	0x3d09ff2e	0.033690624
29	0x3c17af5b	0.009258117
30	0xbd155e4c	-0.03646688
31	0xbd27b70f	-0.040946063
32	0x3d3379cd	0.04381733
33	0x3b202b63	0.0024439923
34	0xbc674e7f	-0.014117836
35	0x3c20e3e9	0.009819963
36	0x3d1f6b50	0.0389207
37	0xbbab17f2	-0.0052213604
38	0x3c2396a6	0.009984648
39	0xbd376568	-0.044774443
40	0xbb05b137	-0.0020399818
41	0x3cddd25d	0.027077848
42	0xbd20c3a1	-0.039249066
43	0xbd35186d	-0.044212747
44	0xbcd2a184	-0.025711782
45	0xbc6fb2f2	-0.014630066
46	0x3c057f62	0.008148046
47	0x3cfa9084	0.030586489
48	0x3d181633	0.037130546
49	0x3a4709e1	0.00075927196
50	0xba9b718f	-0.0011859405
51	0x3d36f56f	0.044667657
52	0xbd1041ea	-0.03521911
53	0x3d02a957	0.031899776
54	0x3d068cd6	0.032849155
55	0x3c76bd71	0.015059815
56	0xbca347d3	-0.01993171
57	0x3c352e76	0.01105844
58	0x3d199a77	0.037500825
59	0x3c12e2cd	0.008965206
60	0x3c9543b7	0.018220766
61	0x3b30fad9	0.0027004986
62	0xbc8070cb	-0.015678784
63	0x3d2374c3	0.039906275
64	0xbcf0d34c	-0.02939763
65	0x3cb18db6	0.021674018
66	0x3c199b2c	0.009375375
67	0x3d326de8	0.043561846
68	0x3b8b46fd	0.004250406
69	0xbd21e0d2	-0.039521046
70	0xbc52b5d8	-0.012860738
71	0x3cb0b245	0.02156938
72	0x3b8ebf83	0.004356326
73	0x3d1593eb	0.03651802
74	0xbc5a3a2a	-0.013319531
75	0x3d19c9c1	0.037545923
76	0x3d019b07	0.031641986
77	0xbd28378c	-0.0410686
78	0xbc549ced	-0.012976867
79	0x3cfdc472	0.030977461
80	0xbc8d510c	-0.01725056
81	0x3c3db31a	0.011578346
82	0x3b87e80e	0.004147536
83	0x3c868773	0.01642201
84	0xbc690a1e	-0.0142236035
85	0x3d019273	0.031633805
86	0xbc2db3f2	-0.010601984
87	0xbd35a38e	-0.04434543
88	0x3cc2ff55	0.023803392
89	0xbc23e5dd	-0.010003534
90	0xbc41656a	-0.011803964
91	0x3b635ae1	0.003469162
92	0xbc702413	-0.014657038
93	0x3d233ad9	0.039851043
94	0x3c38f7ac	0.011289518
95	0xbd1eb79a	-0.038749315
96	0xbd29d8d5	-0.041466553
97	0xbd366126	-0.04452624
98	0xbb0e8eaf	-0.0021752527
99	0x3ca52844	0.020160802

BN1.weight f4 [100]
0	0x3f80f827	1.007573
1	0x3f7fbae5	0.99894553
2	0x3f7f036c	0.99614596
3	0x3f7f0525	0.99617225
4	0x3f803b0f	1.0018023
5	0x3f800dcf	1.0004214
6	0x3f7c58de	0.985731
7	0x3f80a266	1.004956
8	0x3f7ef20e	0.99588096
9	0x3f800d1b	1.0004
10	0x3f80e56d	1.0070015
11	0x3f80336f	1.0015696
12	0x3f7b2591	0.98104197
13	0x3f7e6e1f	0.9938678
14	0x3f7f1721	0.99644667
15	0x3f80af17	1.0053433
16	0x3f7d3b4e	0.98918617
17	0x3f7f4dab	0.99727887
18	0x3f7df721	0.99205214
19	0x3f7fdf01	0.9994965
20	0x3f80e3d2	1.0069525
21	0x3f7f766c	0.9979007
22	0x3f8013f9	1.0006095
23	0x3f80455b	1.0021166
24	0x3f808966	1.0041931
25	0x3f81ce88	1.0141153
26	0x3f7fa203	0.99856585
27	0x3f7f4c50	0.9972582
28	0x3f7fa0d5	0.99854785
29	0x3f800d04	1.0003972
30	0x3f818766	1.0119445
31	0x3f8094c5	1.0045401
32	0x3f81526e	1.010328
33	0x3f7e538e	0.99346244
34	0x3f80f462	1.007458
35	0x3f8055de	1.0026205
36	0x3f8037d7	1.0017041
37	0x3f81100f	1.0083026
38	0x3f80cde1	1.0062829
39	0x3f809d14	1.0047936
40	0x3f805146	1.0024803
41	0x3f808388	1.004014
42	0x3f7d6ce0	0.98994255
43	0x3f7f24a4	0.99665284
44	0x3f7f962b	0.99838513
45	0x3f7ebe38	0.99509
46	0x3f801415	1.0006129
47	0x3f7d76b1	0.99009234
48	0x3f7ecc57	0.9953055
49	0x3f7cd255	0.9875844
50	0x3f7e5fc8	0.993649
51	0x3f7f41a4	0.99709535
52	0x3f80938c	1.0045028
53	0x3f7f3142	0.99684536
54	0x3f7f9ed7	0.99851745
55	0x3f7f2fb6	0.99682176
56	0x3f7e74f0	0.9939718
57	0x3f8003d0	1.0001163
58	0x3f7eafdf	0.9948711
59	0x3f814942	1.0100482
60	0x3f8083af	1.0040187
61	0x3f7ff3ef	0.9998159
62	0x3f807fe3	1.0039028
63	0x3f7fa4c9	0.9986082
64	0x3f7f15dd	0.99642736
65	0x3f7d7777	0.99010414
66	0x3f80f8f8	1.0075979
67	0x3f802b9b	1.0013307
68	0x3f80fc0b	1.0076917
69	0x3f809d80	1.0048065
70	0x3f8025d5	1.0011545
71	0x3f7fbc21	0.99896437
72	0x3f811dd5	1.0087229
73	0x3f7e67d0	0.99377155
74	0x3f7ec4ac	0.9951885
75	0x3f7ff184	0.999779
76	0x3f80436b	1.0020574
77	0x3f7e9da6	0.994593
78	0x3f7ffc3c	0.99994254
79	0x3f8011ab	1.0005392
80	0x3f801d53	1.0008949
81	0x3f80d793	1.0065788
82	0x3f80507c	1.0024562
83	0x3f800fcd	1.0004822
84	0x3f7af522	0.98030293
85	0x3f7e1133	0.99244994
86	0x3f803e56	1.0019023
87	0x3f80a420	1.0050087
88	0x3f7f3777	0.9969401
89	0x3f7f02f0	0.9961386
90	0x3f80019d	1.0000492
91	0x3f7ff53e	0.99983585
92	0x3f80541e	1.002567
93	0x3f8043ad	1.0020653
94	0x3f80ef86	1.0073097
95	0x3f7e3e6e	0.9931401
96	0x3f813ff3	1.0097641
97	0x3f801b11	1.000826
98	0x3f8087f2	1.0041487
99	0x3f7ea81d	0.9947527

BN1.bias f4 [100]
0	0x3c3cc5e5	0.011521791
1	0x3c13769f	0.009000449
2	0xbaea80db	-0.0017891185
3	0x3ba25cce	0.004954911
4	0x3c420f22	0.011844428
5	0xbabbc9ac	-0.0014327071
6	0xbc6711cb	-0.014103363
7	0x3c95c7a4	0.018283673
8	0xbc6ff5c3	-0.0146459965
9	0x3b447dbe	0.0029982175
10	0x3c03aef4	0.008037318
11	0xbbd1daa8	-0.0064042397
12	0xba8e2226	-0.0010843917
13	0x3bf5e38b	0.007503932
14	0xbba5953e	-0.0050531914
15	0x3c5ab84d	0.013349605
16	0x3b19b45c	0.002345345
17	0xbbbcf2b5	-0.0057662376
18	0x3ab799e4	0.0014007655
19	0x3abf8529	0.0014611828
20	0xbbf9758f	-0.007612891
21	0x3c67a3a5	0.014138137
22	0xbbb7c9ce	-0.005608774
23	0xbaf06f61	-0.001834374
24	0xba1f5595	-0.00060781214
25	0x3bca2b32	0.0061697
26	0x3b9d9131	0.004808568
27	0xbc5973c6	-0.013272231
28	0xbae6d388	-0.0017610649
29	0x3c1843a4	0.0092934705
30	0x3bc54bc6	0.006020996
31	0xbc1c1d2a	-0.009528438
32	0x3b64d92f	0.003491949
33	0xbca24e16	-0.019812625
34	0x3bcdd3e7	0.0062813642
35	0x3a89adfe	0.0010504124
36	0xbbeca88c	-0.007222241
37	0x3b8e6963	0.004346059
38	0xbc1b7656	-0.009488663
39	0xb932d830	-0.00017055939
40	0xbc51aa82	-0.012797
41	0x3bef9c76	0.007312353
42	0xbc4522f8	-0.012032263
43	0xbbf2a0f8	-0.007404443
44	0xbb907a69	-0.0044091237
45	0xbb6f55af	-0.0036519577
46	0x3ba0ee12	0.0049111927
47	0xbc22e8ea	-0.009943226
48	0x39b32b54	0.00034173822
49	0xbc7417a8	-0.014898218
50	0xba4569fb	-0.0007530746
51	0x3bc9566d	0.006144336
52	0x3c21a1eb	0.009865264
53	0x3be4b059	0.00697903
54	0x3bef981e	0.007311835
55	0xbc06b3de	-0.008221595
56	0xbc09e2cf	-0.008415892
57	0x3b629b0a	0.0034577274
58	0xbc83defa	-0.016097534
59	0xbc2e92bf	-0.010655104
60	0xbbbe4ff5	-0.0058078715
61	0x3b8c7917	0.004286896
62	0x3b897f5c	0.0041960906
63	0xbbd6224d	-0.0065348507
64	0xbbb7b7f9	-0.005606648
65	0xbb245fb8	-0.0025081467
66	0x3c87de0d	0.016585374
67	0x3b3f6622	0.0029205163
68	0xbbfd8179	-0.0077363816
69	0x3b832acc	0.0040029045
70	0x3c00391f	0.007826119
71	0xbc2d01ee	-0.010559542
72	0x3c3a2446	0.011361187
73	0x3c1ae252	0.009453373
74	0x3b44d252	0.0030032587
75	0xbb2c513e	-0.0026293541
76	0xbbc91e71	-0.006137662
77	0xbae0151d	-0.0017096136
78	0xbba27ada	-0.0049584927
79	0xba3f720b	-0.00073030655
80	0x3bd11fac	0.0063819494
81	0x3beead8b	0.0072838715
82	0x3b590161	0.0033112394
83	0xbc323ff4	-0.010879505
84	0xbbda678e	-0.0066651767
85	0xbbe8faa8	-0.0071099587
86	0xbc0088cd	-0.007845116
87	0x3c008e31	0.007846401
88	0x3cb41684	0.021983393
89	0x3bc2b688	0.0059421696
90	0xbbef289a	-0.0072985413
91	0x3bbcff24	0.00576772
92	0xbc223380	-0.009899974
93	0xbb3d8502	-0.002891839
94	0x3a889a0c	0.0010421886
95	0xbaeae651	-0.0017921423
96	0xbb701a17	-0.0036636645
97	0xbaa8a39c	-0.0012866142
98	0x3b93cdc1	0.0045106118
99	0xbc6896c3	-0.014196101

BN1.running_mean f4 [100]
0	0xbf1b8ed7	-0.6076483
1	0xc01936d1	-2.3939707
2	0x3f87785e	1.0583608
3	0xbfe23d43	-1.7674946
4	0xbe49c345	-0.19703396
5	0x3ec9af68	0.39391637
6	0xbfb1ac37	-1.3880681
7	0xc006012e	-2.093822
8	0x3f9dc249	1.2324916
9	0xbfa18672	-1.2619154
10	0xbf874715	-1.0568568
11	0x3f4b6c46	0.7946209
12	0x3e193893	0.14962988
13	0xbc7ab8d5	-0.015302856
14	0xbfeb7484	-1.8394933
15	0xbf0ac691	-0.5420924
16	0xbfd47182	-1.659714
17	0xbf8d4a09	-1.1038219
18	0xbf2f2be9	-0.68426377
19	0x3ede4f3e	0.43419832
20	0x3f011430	0.5042143
21	0xbf8cb5bc	-1.0992961
22	0x40005cbc	2.00566
23	0x3f04d4d7	0.5188727
24	0x4027ebbd	2.6237633
25	0xbe501d1e	-0.20323607
26	0x3f450384	0.7695849
27	0xbe9fd488	-0.31216836
28	0x402666e2	2.6000295
29	0xc0104cb0	-2.2546806
30	0x3fb16595	1.3859125
31	0xc02c7443	-2.694596
32	0x3e9f456c	0.31107652
33	0x3ffe6a50	1.9876194
34	0x3f63c73a	0.8897587
35	0x3f67c042	0.9052774
36	0x3f7ae512	0.98005784
37	0xbfcc811b	-1.59769
38	0x3f4610fd	0.7736967
39	0x3fa417df	1.2819785
40	0x3ed561b6	0.4167611
41	0x3fb86e21	1.4408609
42	0xbee0253a	-0.43778402
43	0x401692a1	2.3526995
44	0x401ca6b3	2.4476745
45	0xbe978386	-0.29592532
46	0x40014b7c	2.0202322
47	0xbda76d4b	-0.08175143
48	0x3f3e0bf5	0.74236995
49	0x3ee89aa1	0.45430472
50	0x3f92cfa5	1.1469618
51	0xbf1612de	-0.5862254
52	0x3f04b721	0.5184193
53	0xbfa99ee9	-1.325162
54	0x3ee9d760	0.4567213
55	0x3db6ca80	0.089253426
56	0xbf296f89	-0.66185814
57	0xbe828571	-0.25492433
58	0x3fd9eb48	1.7024927
59	0x3fab4385	1.337998
60	0x3fd0e06a	1.6318486
61	0x3fdf7d1c	1.7460055
62	0xbe884265	-0.26613155
63	0x3f3cf0b1	0.73804766
64	0xbf0a8ea7	-0.5412392
65	0x3d8985b9	0.06714959
66	0xbf49f129	-0.78883606
67	0xc01737cf	-2.3627813
68	0x40025bca	2.0368524
69	0xbf884e44	-1.0648885
70	0x3f225de0	0.6342449
71	0x3cd4f229	0.025994377
72	0x3d8af9c4	0.0678592
73	0x3f26ac64	0.651068
74	0xbf4ceb95	-0.8004697
75	0x3f7b47f7	0.98156685
76	0xbf8c2614	-1.094912
77	0x3fbbc372	1.466902
78	0xbec9a02b	-0.3938001
79	0x3fc88264	1.5664792
80	0x3fefd1dc	1.8735919
81	0x3ea0caed	0.3140482
82	0x3deb365a	0.11484976
83	0xbfed3460	-1.8531609
84	0xbfebb950	-1.8415928
85	0x3ff5c8c9	1.92019
86	0x3f651146	0.8947948
87	0x3fa03c6b	1.2518438
88	0xbf6c1a78	-0.9222789
89	0xbf188cb6	-0.5958971
90	0x3f2d6d4c	0.677449
91	0xbfb1dfe4	-1.3896451
92	0xbe2d818b	-0.16943948
93	0xbd35543e	-0.044269793
94	0x3f0490a3	0.517832
95	0xc026abf8	-2.6042461
96	0x3eef7b4e	0.46773762
97	0xc03d76ab	-2.960368
98	0x3e896091	0.26831487
99	0xbfacfbf8	-1.3514395

BN1.running_var f4 [100]
0	0x43931116	294.13348
1	0x453eae23	3050.8835
2	0x44aac0ce	1366.0251
3	0x44de8ea0	1780.457
4	0x445feb4d	895.6766
5	0x4560e94d	3598.5813
6	0x44bbd4e9	1502.6534
7	0x453a2ff4	2978.997
8	0x44d7599b	1722.8002
9	0x44827885	1043.7662
10	0x453e9655	3049.3958
11	0x4524e76a	2638.4634
12	0x454be460	3262.2734
13	0x439d1184	314.13684
14	0x44d3e3cb	1695.1185
15	0x446b24c2	940.57434
16	0x45623aba	3619.6704
17	0x45002636	2050.3882
18	0x445c265a	880.59924
19	0x44902ec9	1153.462
20	0x45170a7f	2416.656
21	0x45118ee4	2328.9307
22	0x44ff4772	2042.2327
23	0x4499b43b	1229.6322
24	0x449fc337	1278.1005
25	0x44e750e8	1850.5283
26	0x44827afa	1043.843
27	0x4561e06b	3614.0261
28	0x4505453c	2132.3271
29	0x452f6f60	2806.961
30	0x449c81ff	1252.0624
31	0x456cd0b7	3789.0447
32	0x452a40bd	2724.0461
33	0x4506a390	2154.2227
34	0x444b9d96	814.4623
35	0x451d5916	2517.5679
36	0x45534a34	3380.6377
37	0x44cd3dd4	1641.9321
38	0x444f8b43	830.17596
39	0x44c37768	1563.7314
40	0x43051c71	133.1111
41	0x451b9ece	2489.9253
42	0x44d8bfaf	1733.9901
43	0x452c9ffc	2761.999
44	0x451634c3	2403.2976
45	0x43a9684f	338.8149
46	0x453e003e	3040.0151
47	0x442343a8	653.0571
48	0x44f82a57	1985.3231
49	0x446b5f46	941.48865
50	0x4563a52c	3642.3232
51	0x443237cd	712.8719
52	0x450c7b79	2247.717
53	0x45220444	2592.2666
54	0x44e21b49	1808.8527
55	0x4469aaf1	934.67096
56	0x448f661c	1147.1909
57	0x438e8531	285.04056
58	0x4536aaf1	2922.6838
59	0x45268dc3	2664.86
60	0x450eaf75	2282.966
61	0x45271d76	2673.8413
62	0x450654eb	2149.3074
63	0x457980fb	3992.0613
64	0x4519ef79	2462.967
65	0x44e51af0	1832.8418
66	0x44eaf52c	1879.6616
67	0x4504119a	2113.1
68	0x44f2aed2	1941.4631
69	0x44fe9855	2036.7604
70	0x445e4f25	889.23663
71	0x44b8ffa4	1479.9888
72	0x442633a7	664.80707
73	0x44310c67	708.1938
74	0x43d5be7b	427.48813
75	0x4487ad67	1085.4188
76	0x44847782	1059.7346
77	0x45162fd6	2402.9897
78	0x44e28580	1812.1719
79	0x4549d3d6	3229.2397
80	0x44c352d1	1562.588
81	0x44389ddb	738.4665
82	0x454d85cc	3288.3623
83	0x445fbcc8	894.9497
84	0x456224cf	3618.3005
85	0x44eb51b9	1882.5538
86	0x44513e18	836.9702
87	0x442ba501	686.5782
88	0x454d7bd5	3287.7395
89	0x44c60b7b	1584.3588
90	0x4418b63d	610.8475
91	0x44e99664	1868.6997
92	0x4500c8fe	2060.562
93	0x44b0bc5a	1413.886
94	0x441dcdc8	631.21533
95	0x4529c5f9	2716.3733
96	0x446c9d5e	946.45886
97	0x45509c18	3337.7559
98	0x4511223c	2322.1396
99	0x44db4293	1754.0804

LinearLayer2.weight f4 [50, 100]
0	0x3da3f085	0.0800486
1	0x3da32552	0.07966103
2	0x3d8869a0	0.06660771
3	0xbdb0329b	-0.08603402
4	0xbd68cbe7	-0.05683508
5	0xbc99d10f	-0.018776445
6	0x3b904225	0.0044024163
7	0xbc22ae54	-0.009929258
8	0x3d649ac1	0.055811647
9	0xbc63efff	-0.0139122
10	0xbda2ab18	-0.0794279
11	0x3d84a8f6	0.06477539
12	0xbd4247e5	-0.047431845
13	0xbd0458d2	-0.03231127
14	0x3daf8fad	0.08572326
15	0x3ca19441	0.019724013
16	0xbd751a9b	-0.059839826
17	0x3db5e0bc	0.08880755
18	0x3d54a4e3	0.05191506
19	0x3c933a2f	0.01797208
20	0x3a5a3c32	0.000832501
21	0x3d3c354a	0.045949258
22	0x3d93d188	0.07217699
23	0xbdaa7c9c	-0.083245486
24	0xbcecbdf0	-0.028899163
25	0x3d605b31	0.054774467
26	0x3d4dd300	0.050250053
27	0xbd9c2283	-0.0762377
28	0x3dae53ad	0.08512054
29	0x3d3c27cf	0.045936402
30	0xbdc73bb3	-0.097281836
31	0xbb386725	-0.002813765
32	0x3d9b7f7d	0.07592676
33	0x3d7a3e6f	0.061094698
34	0xbdb12f58	-0.08651608
35	0x3dcd264d	0.10017071
36	0xbd0b56d3	-0.03401835
37	0x3da14f81	0.07876492
38	0xbd9f8a4b	-0.07790049
39	0x3d8d6b1b	0.06905194
40	0x3da46c7a	0.08028503
41	0xbd803d82	-0.06261732
42	0xbd9fa3b4	-0.07794896
43	0xbac81c49	-0.0015267219
44	0xbce72fa3	-0.028220957
45	0xbd2032ad	-0.03911083
46	0x3d7f4336	0.062319957
47	0x3dbf5a38	0.0934338
48	0xbdc47d17	-0.095941715
49	0x3ca18431	0.019716354
50	0xbd02a04f	-0.031891163
51	0x3bf1761a	0.007368815
52	0x3da9a1cb	0.08282813
53	0x3d2e9594	0.042623118
54	0x3d7f54d1	0.062336747
55	0xbd0005db	-0.031255584
56	0xbbeb9d9d	-0.00719042
57	0x3d441124	0.04786791
58	0xbc083453	-0.008313256
59	0x3cede06f	0.029037682
60	0x3d9486ff	0.07252311
61	0xbdce341d	-0.100685336
62	0x3cd0a856	0.025470894
63	0xbca6e9b9	-0.02037512
64	0x39c2d96f	0.00037164564
65	0x3d95462a	0.07288773
66	0xbd8ebd9c	-0.06969759
67	0x3d1dd085	0.038528938
68	0x3db421a7	0.08795481
69	0xbd31d208	-0.043413192
70	0x3cda3026	0.026634287
71	0xbcc2567e	-0.023722883
72	0x3d5e03aa	0.054202713
73	0xbda4b3df	-0.0804212
74	0xbd40f91a	-0.04711256
75	0xbb88f3d9	-0.0041794595
76	0x3d96e0a1	0.07367063
77	0x3d3f8622	0.04675878
78	0x3d83ab0d	0.0642911
79	0x3d1cbb2e	0.038264446
80	0x3b7eff73	0.0038909584
81	0xbd788b0e	-0.060679488
82	0x3d34dcf1	0.04415602
83	0xbce585ae	-0.028017845
84	0x3d8be556	0.06830852
85	0xbd9a2477	-0.07526486
86	0xbd9bd772	-0.07609452
87	0x3d7efd0e	0.06225305
88	0xbcdd94d9	-0.027048515
89	0x3dd1121a	0.10208531
90	0xbdd50b9e	-0.104026064
91	0x3d495230	0.049150646
92	0x3b1a6dfb	0.0023564089
93	0xbd9fe352	-0.0780703
94	0xbdd75be8	-0.105155766
95	0x3cd90499	0.02649145
96	0xbd0b398c	-0.033990428
97	0xbc2da98b	-0.010599504
98	0xbdade080	-0.084900856
99	0x3be23489	0.0069032353
100	0xbd3a9992	-0.045556612
101	0xbdab9df1	-0.08379734
102	0x3d2b2b50	0.041789353
103	0xbb6d1333	-0.0036174774
104	0xbd222a83	-0.039591324
105	0x3ca35ffd	0.019943232
106	0x3aa1e6e7	0.001235214
107	0xbd61f47c	-0.0551648
108	0x3d92f1c3	0.07175019
109	0xbc982597	-0.018572612
110	0xbd75f556	-0.060048424
111	0x3cd26a3b	0.02568542
112	0xb99d587b	-0.00030011297
113	0xbd4386cf	-0.047735985
114	0x3daa68a5	0.083207406
115	0xbdb456ab	-0.08805593
116	0x3cef1174	0.029183127
117	0x3beeb2d0	0.0072844997
118	0x3dbdeb8b	0.09273442
119	0xbce09283	-0.027413612
120	0xbc85135c	-0.016244583
121	0x3b8b2b4a	0.004247104
122	0x3da06f49	0.07833726
123	0x3dd6aae9	0.10481817
124	0x3d02a4e7	0.031895544
125	0xbd31f536	-0.043446742
126	0xbcc9a70c	-0.024615787
127	0xbc8b0501	-0.01697016
128	0xbdac04dd	-0.08399365
129	0xbda5ea7b	-0.08101364
130	0xbc9566dd	-0.018237526
131	0x3cd609b4	0.026127674
132	0x3b0dd300	0.0021640658
133	0xbd69661a	-0.056982137
134	0x3bbfe758	0.0058564357
135	0xbd346819	-0.044044588
136	0xbd55334b	-0.05205087
137	0xbdc0cbbc	-0.09413859
138	0xbd4cb37a	-0.04997585
139	0xbd099d76	-0.033597432
140	0x3dbc0d3e	0.09182213
141	0x3d9459f2	0.07243718
142	0xbd5fd1d5	-0.05464347
143	0x3da97a7f	0.082753174
144	0xbdabe24c	-0.08392772
145	0x3d274a87	0.04084256
146	0xbd95ed5d	-0.07320664
147	0xbbed3734	-0.0072392467
148	0xbd34d5d5	-0.04414924
149	0xbd0f4b1c	-0.03498374
150	0x3cf52f83	0.029929882
151	0xbc775575	-0.015096058
152	0x3db51df3	0.08843603
153	0xbda66b7b	-0.08125969
154	0x3be822ec	0.007084241
155	0xbd827e28	-0.06371719
156	0xbdb499ba	-0.088183835
157	0xbc6c39ed	-0.014418107
158	0x3cd6949d	0.026193911
159	0x3d58f039	0.05296347
160	0x3dba4988	0.09096056
161	0x3cabb0aa	0.020958263
162	0x3d0d017d	0.034425247
163	0xbc610319	-0.013733649
164	0xbd4979e1	-0.0491885
165	0xbc39dc12	-0.011343973
166	0x3db6da44	0.089283496
167	0xbd4e93c2	-0.05043388
168	0x3db9d1eb	0.09073242
169	0xbc7740ab	-0.015091102
170	0x3d1dcdb6	0.03852626
171	0xbda5745f	-0.08078837
172	0x3d5c1073	0.053726625
173	0x3da16708	0.0788098
174	0xbd936a54	-0.07198015
175	0x3c8cef2a	0.017203886
176	0x3cc6c102	0.024261955
177	0x3cedaa03	0.029011732
178	0xbc69d496	-0.014271876
179	0x3dcc50ae	0.09976326
180	0xbd831ce9	-0.064019985
181	0x3ac6f2bb	0.001517854
182	0x3db042c2	0.08606483
183	0xbdbfe043	-0.093689464
184	0x3d6df0f9	0.058091138
185	0xbd4ab7e9	-0.049491797
186	0xbcd7c5cd	-0.026339436
187	0xbd6172fb	-0.055041295
188	0xbdafbdb5	-0.085811056
189	0xbcf06617	-0.029345555
190	0x3ce0d137	0.027443511
191	0x3db06527	0.08613043
192	0x3dc77346	0.097387835
193	0xbd4814fe	-0.048848145
194	0x3d1d0340	0.038333178
195	0x3d194832	0.037422366
196	0xbdb1e1f8	-0.08685678
197	0x3d5182eb	0.051150244
198	0xbdae0bb4	-0.08498326
199	0xbd7864c2	-0.060642965
200	0xbdbe55d1	-0.09293712
201	0x3d5784aa	0.052616753
202	0xbdb6610f	-0.08905231
203	0x3db57383	0.08859923
204	0xbc4880ac	-0.012237709
205	0xbdabe440	-0.083931446
206	0xbd8e3c01	-0.069450386
207	0xbdaecea6	-0.08535509
208	0xbbecfd38	-0.0072323345
209	0x3d90cfb8	0.07070869
210	0xbde085f2	-0.10963048
211	0xbdc19c65	-0.09453658
212	0x3da9b1ca	0.08285864
213	0x3d06179a	0.032737352
214	0x3ccd8db8	0.02509199
215	0xbc2abad3	-0.010420519
216	0xbdafd276	-0.08585064
217	0x3da74660	0.0816772
218	0xbdbc40ad	-0.091920234
219	0x3db74523	0.08948734
220	0xbda2017f	-0.079104416
221	0x3d4b55c1	0.04964233
222	0x3d121a1b	0.035669427
223	0x3d9d7dfd	0.07690046
224	0x3d3c76bf	0.046011683
225	0xbd7d7554	-0.06187947
226	0x3c697b26	0.014250552
227	0xbdd8ede6	-0.105922505
228	0xbcdc962e	-0.02692708
229	0x3d9fecf8	0.0780887
230	0xbb951693	-0.00454981
231	0xbc927640	-0.017878652
232	0x3d7e0794	0.062018946
233	0xbdbee40e	-0.09320842
234	0xbdb35dcf	-0.08758127
235	0x3cb58a2f	0.022160618
236	0x3d4809ed	0.04883759
237	0xbdaacd6b	-0.083399616
238	0xbd9bb663	-0.07603147
239	0xbc12b799	-0.008954906
240	0x3a517b9f	0.0007991138
241	0xbbf756ba	-0.0075481804
242	0x3d368385	0.04455902
243	0x3be1dab4	0.0068925265
244	0x3c07a7cc	0.008279752
245	0x3dba83dc	0.091071814
246	0x3dc86b83	0.09786131
247	0xbda49821	-0.08036829
248	0xbd39739c	-0.04527627
249	0x3d7d9426	0.061908863
250	0x3d71481e	0.058906667
251	0xbdc10671	-0.09425057
252	0xbdbd210a	-0.09234817
253	0x39de86fa	0.00042443705
254	0xbd926817	-0.0714876
255	0x3d9fed54	0.078089386

LinearLayer2.bias f4 [50]
0	0xbc1e6753	-0.009668189
1	0xbd5a99cc	-0.05336933
2	0xbd9c9f32	-0.076475516
3	0xbd8f62f4	-0.07001296
4	0xbcf7e3d5	-0.030260006
5	0xbc235655	-0.009969314
6	0x3caa13d9	0.020761417
7	0x3ce7f359	0.02831428
8	0xbd126005	-0.035736103
9	0xbdaecaf8	-0.08534807
10	0x3db32cd7	0.08748787
11	0xbd296b85	-0.041362304
12	0xbdae20a3	-0.08502319
13	0xbdb66e02	-0.08907701
14	0x3c844db5	0.016150335
15	0x3d830c19	0.06398792
16	0x3b6d561f	0.0036214662
17	0x3cbf7ef9	0.023375975
18	0xbc46a5e5	-0.012124513
19	0x3dc71b7d	0.0972204
20	0x3d0e45af	0.034734424
21	0x3d8da4f4	0.06916228
22	0x3c8ff301	0.017571928
23	0xbd2b279a	-0.041785814
24	0xbade3cf8	-0.0016955426
25	0x3cbe0b9c	0.023198895
26	0x3d4091b2	0.047013946
27	0xbdc7ae8c	-0.09750089
28	0xbc8d21d7	-0.01722805
29	0x3c8f5e11	0.017500909
30	0x3d9ce0c8	0.07660061
31	0xbceafdba	-0.02868544
32	0x3d927808	0.071518004
33	0x3c017ed1	0.007903771
34	0x3b54ba3b	0.0032459635
35	0xba8e195a	-0.0010841296
36	0x3d34c52e	0.044133358
37	0xbd16c8f2	-0.03681273
38	0xbdb524f9	-0.088449426
39	0x3d071e85	0.03298809
40	0x3d0e75fe	0.034780495
41	0x3db0b959	0.08629102
42	0xbdc6d259	-0.097080894
43	0x3d69ce7a	0.057081677
44	0xbd2ce9bd	-0.042215098
45	0xbd1c88bd	-0.03821634
46	0xbdb00369	-0.085944004
47	0xbb04b384	-0.0020248601
48	0xbdc17a88	-0.09447199
49	0xbcd2d19a	-0.025734711

BN2.weight f4 [50]
0	0x3f7f0858	0.99622107
1	0x3f817fe7	1.0117158
2	0x3f7bc556	0.98347986
3	0x3f815581	1.0104219
4	0x3f815cf2	1.010649
5	0x3f809343	1.0044941
6	0x3f81784e	1.0114839
7	0x3f7ed2e3	0.9954054
8	0x3f7e450d	0.99324113
9	0x3f81989f	1.0124701
10	0x3f80accb	1.0052732
11	0x3f831367	1.0240296
12	0x3f7e2936	0.9928163
13	0x3f7d5ef2	0.98973
14	0x3f8154f5	1.0104052
15	0x3f7e9678	0.9944835
16	0x3f808e89	1.0043498
17	0x3f7fbc19	0.9989639
18	0x3f7fa713	0.9986431
19	0x3f814ec9	1.0102168
20	0x3f819e47	1.0126427
21	0x3f7f2f71	0.99681765
22	0x3f82058f	1.0157946
23	0x3f7edf73	0.99559706
24	0x3f80f5ed	1.007505
25	0x3f7cd692	0.9876491
26	0x3f80049f	1.000141
27	0x3f7f532c	0.99736285
28	0x3f7be6e2	0.98399174
29	0x3f7de5fd	0.9917906
30	0x3f81c41d	1.0137974
31	0x3f7c8cc1	0.98652273
32	0x3f810b89	1.0081645
33	0x3f804625	1.0021406
34	0x3f824147	1.0176171
35	0x3f8069d4	1.0032296
36	0x3f7f75f6	0.9978937
37	0x3f7d65dd	0.98983556
38	0x3f7ee8bf	0.9957389
39	0x3f81585e	1.0105093
40	0x3f803455	1.001597
41	0x3f7f605d	0.99756414
42	0x3f808a32	1.0042174
43	0x3f7c728a	0.9861227
44	0x3f7e9c70	0.99457455
45	0x3f7f5173	0.99733657
46	0x3f803570	1.0016308
47	0x3f8019a0	1.000782
48	0x3f8058c3	1.0027088
49	0x3f812b30	1.0091305

BN2.bias f4 [50]
0	0x3b5d8d5c	0.003380618
1	0xbc1feb9b	-0.009760763
2	0xbadcf545	-0.0016857764
3	0xbb72e139	-0.0037060513
4	0x3aa65786	0.0012690879
5	0xbb11a745	-0.0022224945
6	0x3c1535f7	0.0091071045
7	0xbc2e3ddb	-0.010634865
8	0x3ab8d51a	0.0014101595
9	0x3c97f69e	0.018550213
10	0x3c8f867f	0.017520187
11	0x3c5ef409	0.013607987
12	0xbcc0a59a	-0.023516465
13	0x3b75fa14	0.0037533091
14	0x3b3127e3	0.002703183
15	0x3b75cc29	0.0037505722
16	0xbb010ea2	-0.001969256
17	0xbbe194a8	-0.0068841763
18	0x3be537f8	0.0069951974
19	0x3c1de851	0.009637908
20	0x3c10b5cc	0.008832406
21	0xbc4735c7	-0.012158818
22	0x3c1cf56d	0.009579998
23	0x3ab95058	0.0014138324
24	0x3bed45eb	0.007241001
25	0xbb163fe1	-0.0022926258
26	0x3c6b6ee8	0.014369704
27	0xbbbea26a	-0.005817701
28	0xbc0e8c47	-0.008700437
29	0xbc4c6afb	-0.012476678
30	0x3b69141c	0.0035564965
31	0xbc298d85	-0.010348682
32	0xb9fea07e	-0.0004856623
33	0x3acb1c67	0.0015496135
34	0x3c354c3d	0.01106554
35	0x3be0fee6	0.0068663238
36	0x3bfecc36	0.0077758087
37	0x39813c97	0.0002464994
38	0x3ae65f4d	0.0017576009
39	0xbc7582d0	-0.014984801
40	0xbb59b9c8	-0.0033222307
41	0xbc7e0a25	-0.015505348
42	0xbbaee202	-0.005337001
43	0xbc86cad8	-0.016454145
44	0xba916117	-0.0011091557
45	0xbc03f1b0	-0.008053228
46	0x3b964ddd	0.0045869187
47	0x3c0586c1	0.008149804
48	0x3bc741b5	0.006080831
49	0xbb8312e7	-0.004000056

BN2.running_mean f4 [50]
0	0x3d12858f	0.035771903
1	0xbdcc7cf0	-0.099847674
2	0xbe0b4a67	-0.13602601
3	0xbd98fd12	-0.07470144
4	0xbdd76300	-0.105169296
5	0x3d0a0d1c	0.03370391
6	0x3a4d5062	0.00078321074
7	0xbcb20aff	-0.021733759
8	0xbe2034f3	-0.15645199
9	0xbcc7f8ee	-0.024410691
10	0x3d919ee4	0.07110384
11	0xbd55cbef	-0.05219644
12	0xbd2ab15f	-0.04167306
13	0xbe04e6cb	-0.12978666
14	0x3d12635e	0.035739295
15	0x3a56094c	0.00081648375
16	0xbc301ada	-0.010748589
17	0x3da0a3f1	0.07843769
18	0xbc733915	-0.014845152
19	0xbd61f104	-0.05516149
20	0x3daf6374	0.08563891
21	0x3e084e85	0.13311203
22	0xbd8ff8c6	-0.07029872
23	0xbc8a79d1	-0.01690379
24	0xbdc602be	-0.09668492
25	0x3cad8399	0.021180915
26	0x3c8f7ea9	0.017516451
27	0xbdad312f	-0.08456647
28	0x3cb08782	0.02154899
29	0xbd5f18f0	-0.05446714
30	0x3d6ba624	0.05753149
31	0xbd4005c9	-0.046880517
32	0xbbf2dd06	-0.007411602
33	0xbc0d48cd	-0.008623314
34	0x3d0983d3	0.033572983
35	0xbd95dea8	-0.07317859
36	0x3d146c0b	0.03623585
37	0xbd2c0d82	-0.04200507
38	0xbdeddc78	-0.11614317
39	0x3d39809a	0.04528866
40	0x3d8da412	0.069160596
41	0x3e64c1ff	0.22339629
42	0xbdaaea35	-0.08345453
43	0x3dc5b77c	0.096541375
44	0xbd8703a2	-0.0659249
45	0xbdb499ef	-0.08818423
46	0xbd06f284	-0.032946125
47	0x3b988466	0.004654455
48	0xbdad2bde	-0.084556326
49	0x3c7bab4e	0.015360666

BN2.running_var f4 [50]
0	0x3ea9384a	0.33050758
1	0x3e7be735	0.24599917
2	0x3e96ad5c	0.29429138
3	0x3e2182c6	0.15772542
4	0x3e6e3e6f	0.23266004
5	0x3ecd00cb	0.40039667
6	0x3e97ec91	0.29672673
7	0x3e8df538	0.2772615
8	0x3eedd254	0.4644953
9	0x3ddd74ad	0.1081327
10	0x3def78cc	0.11692962
11	0x3e478b1a	0.19486657
12	0x3e01b2dc	0.12665886
13	0x3e4805b7	0.1953343
14	0x3e342740	0.17593098
15	0x3e40e29d	0.18836446
16	0x3e3b56e7	0.1829487
17	0x3e0c04c2	0.1367369
18	0x3e26b435	0.16279681
19	0x3eccb5c3	0.39982423
20	0x3e06be51	0.13158537
21	0x3e05a3a1	0.130507
22	0x3e31da18	0.17368352
23	0x3e300e5a	0.17192975
24	0x3efccb96	0.49374074
25	0x3e51e699	0.20498122
26	0x3e933855	0.28753915
27	0x3e35ffae	0.17773315
28	0x3e8b830d	0.2724842
29	0x3e92e3b9	0.28689364
30	0x3e326781	0.17422296
31	0x3e3e94b2	0.1861141
32	0x3e50bde3	0.20384936
33	0x3e22a55a	0.15883389
34	0x3ea3e93e	0.32013887
35	0x3e6a5b77	0.22886454
36	0x3e418b02	0.18900684
37	0x3de1876f	0.1101216
38	0x3ec3cdef	0.38243052
39	0x3e14eda7	0.14543782
40	0x3e55aa47	0.20865737
41	0x3ea7c3b0	0.32766485
42	0x3e436ba5	0.19084032
43	0x3e479f64	0.19494396
44	0x3e3d1ef5	0.1846884
45	0x3e2581ce	0.16162798
46	0x3ee89e2e	0.45433182
47	0x3e7344e5	0.2375675
48	0x3e249e18	0.16075933
49	0x3e6ac9e0	0.22928572

LinearLayer3.weight f4 [33, 50]
0	0x3abe8987	0.0014536836
1	0xbe21f08c	-0.15814418
2	0x3dd7a890	0.105301976
3	0xbd09403c	-0.033508524
4	0x3dc2cc22	0.095115915
5	0xbc292f13	-0.010326165
6	0xbcfd1daf	-0.030897943
7	0x3dd0cf1d	0.10195754
8	0x3d37ef81	0.044906143
9	0xbe14da31	-0.14536358
10	0x3e01a9f7	0.12662493
11	0xbc2d6621	-0.010583431
12	0xbde32a62	-0.11092068
13	0x3e0069d7	0.12540375
14	0xbcee3ddd	-0.029082233
15	0x3d550eff	0.052016255
16	0xbdefc4a2	-0.117074266
17	0x3da0c2f8	0.07849687
18	0x3e15c259	0.14624919
19	0xbdc1425e	-0.09436487
20	0xbd968cf3	-0.07351103
21	0xbd7db24b	-0.06193761
22	0xbe1365fa	-0.1439437
23	0x3d3e4601	0.04645348
24	0xbd3df480	-0.04637575
25	0x3d5b5d6a	0.053555883
26	0x3d7cabc5	0.06168725
27	0xbdf3be18	-0.11901492
28	0x3d384b2b	0.04499356
29	0x3d01b3ed	0.03166573
30	0x3baa87b8	0.005204167
31	0x3d15077f	0.036384102
32	0xbc9af603	-0.018916136
33	0xbba9831b	-0.0051730997
34	0xbc1a97b1	-0.00943558
35	0x3e07dd78	0.13268077
36	0xbd9a7677	-0.075421266
37	0x3cc94e5c	0.024573497
38	0xbe05a5b6	-0.13051495
39	0xbdd236ee	-0.10264383
40	0xbdb954a8	-0.0904935
41	0x3dd5af04	0.10433772
42	0xbdf26597	-0.11835783
43	0xbdb64109	-0.08899123
44	0xbc63f4f0	-0.013913378
45	0xbda2221a	-0.079166606
46	0xbd1e7156	-0.038682304
47	0x3d7b4437	0.06134435
48	0x3c2f8f7e	0.010715364
49	0xbd171e75	-0.03689428
50	0x3cf01402	0.029306415
51	0x3d9995b9	0.074992605
52	0x3cbe7f21	0.02325398
53	0xbd845404	-0.06461337
54	0xbd32f7c9	-0.043693338
55	0xbdcf7db9	-0.101314016
56	0xbde3c5ea	-0.111217335
57	0x3df09ad6	0.117482826
58	0x3cf8b1fe	0.03035831
59	0xbdfd1732	-0.1235794
60	0x3dd5c995	0.10438839
61	0xbc80a145	-0.0157019
62	0xbcbe76c7	-0.023249997
63	0x3d0216b4	0.031759933
64	0xbd845304	-0.064611465
65	0x3cf871fb	0.030327788
66	0x3decb0a2	0.115571275
67	0x3dc3a04e	0.0955206
68	0xbccf1720	-0.025279582
69	0x3d9d6e4e	0.076870546
70	0xbdf83561	-0.12119556
71	0xbdbdc8fd	-0.09266851
72	0x3d93f83e	0.07225083
73	0xbcacb61c	-0.02108293
74	0xbe0da33e	-0.13831803
75	0xbdefb91f	-0.11705231
76	0x3d6d5b51	0.057948414
77	0xbc64066d	-0.013917548
78	0xbddbc259	-0.10730428
79	0xbdb29325	-0.08719472
80	0xbe0351ea	-0.12824216
81	0x3c3ad2fc	0.011402842
82	0xbda9588a	-0.082688406
83	0x3daca23c	0.08429381
84	0x3e04645f	0.12928914
85	0x3da8524e	0.082188234
86	0xbddc71a1	-0.107638605
87	0xbc8d61f9	-0.017258631
88	0x3dd081f8	0.101810396
89	0x3d6a2f74	0.05717416
90	0x3dc96dbd	0.09835384
91	0xbdc91463	-0.098183416
92	0x3db9c7be	0.09071301
93	0x3db79a79	0.0896501
94	0xbdb2938e	-0.0871955
95	0x3d073957	0.033013668
96	0xbd3f888d	-0.046761084
97	0xbdd2484f	-0.10267698
98	0xbd11ecad	-0.035626102
99	0x3e07f06a	0.13275304
100	0x3d27be1e	0.040952794
101	0xbd3620fc	-0.04446505
102	0x3e2b0ecb	0.16704862
103	0xbdedc2d0	-0.11609423
104	0xbda4095f	-0.080096
105	0xbe128f9d	-0.14312597
106	0xbd48192d	-0.048852134
107	0xbd0fdf49	-0.03512505
108	0xbda9e922	-0.0829642
109	0xbe109159	-0.14117946
110	0xbdb9576e	-0.09049879
111	0x3e0b3667	0.13594972
112	0x3deafd5b	0.11474105
113	0xbdfb5de3	-0.12273767
114	0xbddd75c7	-0.1081348
115	0x3db785f5	0.08961097
116	0x3ca34712	0.01993135
117	0x3e03938a	0.1284925
118	0x3db31796	0.08744733
119	0xbc983f38	-0.018584833
120	0x3d35c1db	0.044374328
121	0xbe0273c3	-0.12739472
122	0x3d6d8536	0.057988368
123	0xbd9e6eeb	-0.07736
124	0x3cb1a58d	0.021685386
125	0xbd3ada14	-0.04561813
126	0xbd6442c7	-0.055727746
127	0xbda68739	-0.081312604
128	0x3da39af6	0.07988541
129	0xbdf2c5d0	-0.11854136
130	0x3d0ba042	0.03408838
131	0xbdd6b83e	-0.1048436
132	0x3d9e20a1	0.07721067
133	0xbd8c9175	-0.06863681
134	0xbdda3941	-0.106554516
135	0x3df93cad	0.12169776
136	0xbda31a0e	-0.07963954
137	0xbe094677	-0.13405786
138	0x3dae4373	0.08508959
139	0xbdd8eeef	-0.10592448
140	0x3d4cb552	0.049977608
141	0x3deb258c	0.11481771
142	0x3db1ca11	0.08681119
143	0xbded4f20	-0.115873575
144	0x3d81c9d9	0.063373275
145	0x3d8fcc23	0.07021358
146	0xbd3088eb	-0.043099325
147	0xbb36be9a	-0.0027884603
148	0xbe0b89c0	-0.13626766
149	0x3e04e400	0.129776
150	0xbd898787	-0.06715303
151	0xbd2cbe61	-0.042173747
152	0xbdddb187	-0.10824876
153	0xbe018b5c	-0.12650818
154	0xbaf119de	-0.001839455
155	0xbe0a6917	-0.13516651
156	0x3d857b79	0.06517691
157	0x3e01d87b	0.12680237
158	0x3d4f63b0	0.05063218
159	0x3de78f3b	0.11306616
160	0xbd9bb3ed	-0.076026775
161	0xb9bfb75b	-0.0003656697
162	0xbd9cd142	-0.076571
163	0x3daff01d	0.0859072
164	0x3cdd222b	0.026993832
165	0xbe09834f	-0.13428997
166	0x3de28f1e	0.11062454
167	0x3d807c5d	0.062737204
168	0xbd1ba74f	-0.038001355
169	0x3ded74d8	0.11594552
170	0x3c3a86df	0.011384695
171	0xbc927dc9	-0.017882245
172	0x3cb1a576	0.021685343
173	0xbdca98c0	-0.09892416
174	0xbd014508	-0.031559974
175	0xbd9721df	-0.07379507
176	0xbdd4ea5c	-0.10396263
177	0x3db328ce	0.08748017
178	0x3ddf44b5	0.10901777
179	0x3d904be2	0.070457235
180	0xbd03640c	-0.032077834
181	0x3dfd4812	0.12367262
182	0x3cf143b9	0.029451238
183	0x3c8d24a6	0.01722939
184	0xbd01c112	-0.031678267
185	0xbc2c0808	-0.010499962
186	0x3e15d56a	0.14632192
187	0xbd7731bc	-0.060350165
188	0xbd96e395	-0.073676266
189	0xbd612168	-0.0549635
190	0xbd816734	-0.063185126
191	0xb9a8176c	-0.00032060908
192	0xbd84bf19	-0.064817615
193	0x3b29f149	0.002593117
194	0xbb17b84c	-0.002315062
195	0xbdb22e75	-0.08700267
196	0x3dc5a08d	0.09649763
197	0xbdb50476	-0.088387415
198	0xbd8a97db	-0.067672454
199	0x3d72abf2	0.05924601
200	0x3e01f510	0.1269114
201	0xbd0ccad7	-0.03437313
202	0xbca11e0d	-0.01966765
203	0x3b04edbf	0.002028331
204	0xbc92cf7b	-0.0179212
205	0xbd5902ff	-0.052981373
206	0xbdb9f33d	-0.09079597
207	0x3d3a2f4a	0.045455255
208	0x3e1d63d1	0.15370108
209	0xbdb369e3	-0.08760431
210	0x3d8a60cb	0.06756743
211	0x3db82cd9	0.08992929
212	0x3de520a5	0.11187867
213	0x3e011c81	0.1260853
214	0xbdba7c53	-0.09105744
215	0xbe05b4db	-0.13057272
216	0x3c610f31	0.013736532
217	0xbdd4f572	-0.103983775
218	0xbc884026	-0.01663215
219	0xbd73582a	-0.05941025
220	0x3e00b17d	0.12567706
221	0x3dc5d77a	0.096602395
222	0xbcfdc494	-0.030977525
223	0xbbf50dfc	-0.0074784737
224	0x3d9c3739	0.076277204
225	0x3bb00e08	0.0053727664
226	0xbdfbca92	-0.122944966
227	0xbc1391da	-0.009006942
228	0x3d21811c	0.03942977
229	0xbd64629b	-0.0557581
230	0xbbad7e84	-0.005294623
231	0xbde9ffc2	-0.11425735
232	0x3d8af7f4	0.067855746
233	0xbdec2e6b	-0.11532291
234	0xbdef4c37	-0.11684459
235	0xbda79dff	-0.08184432
236	0xbcedfa9c	-0.029050164
237	0xbd18ddad	-0.03732078
238	0xbc096351	-0.008385495
239	0xbcc1a9cf	-0.023640541
240	0x3d857761	0.0651691
241	0x3b5a68e6	0.0033326684
242	0x3dccaf44	0.09994367
243	0x3c54e928	0.012995042
244	0xbe10412b	-0.1408736
245	0xbe1300a9	-0.1435572
246	0x3d56e572	0.05246491
247	0x3a6f5d3c	0.00091310195
248	0x3d00b68f	0.0314241
249	0xbc9925c6	-0.01869477
250	0xbd9b1da6	-0.07574014
251	0xbd80dc75	-0.06292049
252	0x3da15e90	0.078793645
253	0xbd845c71	-0.06462944
254	0xbd8a6735	-0.067579664
255	0x3d8ddd83	0.06927016

LinearLayer3.bias f4 [33]
0	0xbdef4618	-0.11683291
1	0x3cdcee4a	0.026969094
2	0x3cfe76e5	0.031062553
3	0x3e0e2944	0.13882929
4	0xbdaa7432	-0.08322944
5	0xbd1b63b9	-0.0379369
6	0x3b9f2449	0.0048566204
7	0x3db42ee9	0.0879801
8	0xbe0a60ff	-0.13513564
9	0x3d9aeae6	0.075643346
10	0xbc09e614	-0.008416671
11	0x3c97301f	0.018455563
12	0xbe057333	-0.13032226
13	0x3dadcbc2	0.08486129
14	0x3d53377c	0.051566586
15	0x3bae9349	0.0053276164
16	0xbcf2fc60	-0.029661357
17	0x3e079eae	0.13244125
18	0x3e0c4e4f	0.13701747
19	0xbddfa932	-0.10920943
20	0x3dff1f75	0.12457172
21	0xbcffd70a	-0.031230468
22	0x3e0d7a7e	0.13816258
23	0xbad2a0a2	-0.0016069601
24	0x3df3a790	0.118971944
25	0xbd6824d4	-0.056675747
26	0x3c81da4b	0.01585116
27	0xbe100122	-0.14062932
28	0xbdb3cb63	-0.08779027
29	0x3c843bca	0.01614179
30	0xbc99b457	-0.01876275
31	0xbda412bb	-0.08011385
32	0xbda0cd72	-0.078516856

BN3.weight f4 [33]
0	0x3f7ed429	0.9954248
1	0x3f800d93	1.0004143
2	0x3f78bea6	0.97165906
3	0x3f822851	1.0168554
4	0x3f791516	0.972978
5	0x3f7e8963	0.99428385
6	0x3f7c2405	0.9849246
7	0x3f7e4662	0.99326146
8	0x3f7a86f1	0.97862154
9	0x3f816c71	1.0111219
10	0x3f7ecdc7	0.9953274
11	0x3f81a134	1.012732
12	0x3f7ade57	0.97995514
13	0x3f7ab8ea	0.97938406
14	0x3f80569c	1.0026431
15	0x3f7acc63	0.9796812
16	0x3f825840	1.0183182
17	0x3f7f36e0	0.9969311
18	0x3f7cdb15	0.9877179
19	0x3f7dd61b	0.99154824
20	0x3f8049ac	1.0022483
21	0x3f7c4826	0.9854759
22	0x3f8067cc	1.0031676
23	0x3f80c015	1.0058619
24	0x3f7e5ea6	0.9936317
25	0x3f78ee4d	0.9723862
26	0x3f816950	1.0110264
27	0x3f7ab2b6	0.9792894
28	0x3f817884	1.0114903
29	0x3f7d639f	0.98980135
30	0x3f8170d4	1.0112557
31	0x3f7a2812	0.9771739
32	0x3f7e5e6e	0.9936284

BN3.bias f4 [33]
0	0x3cee21f1	0.029068919
1	0x3ce5cb2a	0.028050978
2	0xbcf24355	-0.029573122
3	0x3d20f50e	0.039296202
4	0xbcd85ab4	-0.026410438
5	0xbcfbfbef	-0.03075978
6	0xbce50d42	-0.027960423
7	0xbcce6861	-0.025196256
8	0xbcffe092	-0.031235013
9	0x3d109d28	0.035306126
10	0x3cef7cf7	0.029234393
11	0x3cf4dd38	0.029890642
12	0xbd06240c	-0.03274922
13	0xbcf70941	-0.03015578
14	0xbcaa8c4e	-0.020818856
15	0xbd035d11	-0.032071177
16	0x3d1e5dda	0.038663723
17	0x3d010121	0.031495217
18	0xbd010df5	-0.03150745
19	0x3cfa4f08	0.030555263
20	0x3cd3f0a9	0.025871592
21	0xbcba97fd	-0.022777552
22	0x3d03206d	0.032013346
23	0x3d087c63	0.03332175
24	0xbd0084be	-0.031376593
25	0xbcf5e409	-0.030015962
26	0x3d2d9b14	0.042384222
27	0xbcf59057	-0.029976053
28	0x3d008be4	0.03138341
29	0xbce837c3	-0.028346902
30	0x3d0a868a	0.033819713
31	0xbce97263	-0.028496927
32	0xbcd7c6d6	-0.02633993

BN3.running_mean f4 [33]
0	0xbe145b5b	-0.14487974
1	0x3cd51ea4	0.026015587
2	0xbbbba8d3	-0.0057269125
3	0x3dfb56b2	0.12272395
4	0xbe02876b	-0.1274697
5	0x3b85d979	0.0040847627
6	0xbc5a795c	-0.013334598
7	0x3d197dba	0.037473418
8	0xbe4dd662	-0.20101312
9	0x3e52e72b	0.20595996
10	0xbdb194b0	-0.08670938
11	0x3d2a25bf	0.041539904
12	0xbded582f	-0.11589085
13	0x3da30358	0.07959622
14	0xbd1e1031	-0.03858966
15	0x3d5aca1e	0.05341541
16	0x3cbc085c	0.022953205
17	0x3e350ab1	0.1767986
18	0x3d8a9c58	0.067681015
19	0xbdf519d3	-0.11967816
20	0x3dd40e80	0.10354328
21	0xbcd760a5	-0.0262912
22	0x3dc48998	0.095965564
23	0x3d905f95	0.07049481
24	0x3e35d2ac	0.17756146
25	0xbd7131b0	-0.058885276
26	0x3d8da549	0.06916291
27	0xbdb55f44	-0.08856061
28	0xbdba06aa	-0.09083302
29	0x3d37621c	0.0447713
30	0x3cec8fae	0.028877106
31	0xbd088703	-0.033331882
32	0xbe1628d4	-0.14664012

BN3.running_var f4 [33]
0	0x3e874d47	0.26426145
1	0x3ebc5328	0.36782193
2	0x3ef3e3f9	0.47634867
3	0x3e11df1b	0.14245264
4	0x3e47ed2c	0.19524068
5	0x3e4ebaa3	0.20188384
6	0x3e975004	0.29553235
7	0x3e93a0ba	0.28833562
8	0x3f1c0516	0.6094526
9	0x3ebc31de	0.36756796
10	0x3e405e04	0.18785864
11	0x3defc724	0.11707905
12	0x3e41a177	0.1890925
13	0x3e5776d6	0.21041426
14	0x3e81e521	0.25370124
15	0x3ea4b026	0.3216564
16	0x3db0fcc4	0.08641961
17	0x3e81072a	0.25200778
18	0x3ef76fc0	0.48327446
19	0x3e2aa084	0.16662794
20	0x3e2dfc2e	0.1699073
21	0x3e105923	0.14096503
22	0x3e6fbe31	0.23412396
23	0x3ead2b2a	0.33821994
24	0x3ed11926	0.408395
25	0x3ea0928a	0.313618
26	0x3e4713fe	0.1944122
27	0x3e6d6ad9	0.2318529
28	0x3e806212	0.25074822
29	0x3e1041d7	0.14087616
30	0x3e2c77f9	0.16842641
31	0x3e2ba181	0.16760828
32	0x3dc51742	0.09623577

LinearLayer4.weight f4 [1, 33]
0	0x3e269a61	0.16269828
1	0x3de80c14	0.11330429
2	0xbde8e3f9	-0.11371607
3	0x3c641200	0.013920307
4	0xbd46b8f3	-0.048516225
5	0xbcc9efc1	-0.024650456
6	0xbd65c6be	-0.05609774
7	0xbc858ace	-0.016301539
8	0xbdb805c6	-0.08985476
9	0x3cf30eb4	0.029670097
10	0x3defb0e0	0.11703658
11	0x3dd8edd6	0.105922386
12	0xbde9e85b	-0.114212714
13	0xbd65a590	-0.056066096
14	0xbc4bb8f7	-0.012434236
15	0xbdf31111	-0.118684895
16	0x3ca9505a	0.020668197
17	0x3def32ca	0.11679609
18	0xbdc8680e	-0.09785472
19	0x3e01398d	0.1261961
20	0x3e0adaa8	0.13559973
21	0xbd319698	-0.043356508
22	0x3cd6bd1a	0.026213218
23	0x3e09f347	0.13471709
24	0xbdd59160	-0.10428119
25	0xbe1c405f	-0.1525893
26	0x3c81204d	0.015762473
27	0xbd6b6de2	-0.05747784
28	0x3d4a2969	0.049355898
29	0xbca3c19a	-0.019989777
30	0x3e0f4e45	0.13994701
31	0xbdaec17d	-0.08532999
32	0xbd291c0a	-0.041286506
